simulation/weight/unmasked_Adam_lr_0.001_hyper_[1.0, 3.0, 0.3, 1e-07, 1e-07, 1e-07, 0.0, 10]_batch_16-07-14-15-27.pt (torch, 65447 bytes, 15 tensors)

en.layers.0.0.weight f4 [32, 3]
0	0xba9f0cce	-0.0012134553
1	0x3962b025	0.00021618659
2	0xbc66e980	-0.014093757
3	0x3e343bef	0.17600988
4	0xbca2b6d5	-0.019862572
5	0x3c1e2f44	0.009654824
6	0xbe82c9c3	-0.25544557
7	0xbe640223	-0.2226644
8	0xbc81db4f	-0.015851645
9	0x3b803beb	0.003913393
10	0x3c13c96b	0.00902019
11	0xbc031b0d	-0.008002055
12	0xbc53ff45	-0.012939279
13	0x3bf5c390	0.0075001195
14	0xb90b0961	-0.00013259567
15	0x3bfd7665	0.007735061
16	0x3bd46f23	0.006482975
17	0xbc9331cd	-0.017968083
18	0x3e9391e7	0.28822252
19	0xbea77199	-0.32703856
20	0xbdf66209	-0.120304175
21	0x3ed7fb12	0.4218374
22	0x3ebc1418	0.3673408
23	0x3cbb36b7	0.022853239
24	0xbbb07e4b	-0.005386149
25	0x3c15846d	0.009125811
26	0x3b21ede0	0.0024708435
27	0x3c85e206	0.016343128
28	0x3c8ecd7a	0.017431963
29	0x3b5fee04	0.0034168968
30	0x3b553ad8	0.0032536294
31	0xbe5c86b5	-0.21535762
32	0x3b65c5c3	0.0035060502
33	0xbc113d34	-0.00886469
34	0xbc1195ce	-0.008885814
35	0xbbffddd0	-0.0078084245
36	0x3cdab650	0.026698261
37	0xbdaa2ca2	-0.08309294
38	0x3e420dcc	0.18950576
39	0xbeb42781	-0.3518639
40	0x3d0ff1d2	0.035142727
41	0xbccd98a0	-0.025097191
42	0x3b31aa56	0.0027109585
43	0x3b5e71a7	0.0033942254
44	0xbaba5c64	-0.0014218208
45	0x3bb92b4a	0.0056509124
46	0x3c1a24b5	0.009408166
47	0xbbf509f0	-0.0074779913
48	0x3c48b4a6	0.012250101
49	0xbba3976b	-0.0049924157
50	0xbb74c77e	-0.0037350352
51	0xbb436ce4	-0.0029819543
52	0xbc43c668	-0.011949159
53	0x3b74d908	0.0037360806
54	0x3c8fd4f1	0.017557593
55	0x3c7aea80	0.015314698
56	0x3b82551e	0.003977432
57	0x3c06f7c1	0.00823778
58	0x3c2f96e1	0.010717125
59	0x3bcae42a	0.00619175
60	0x3c875d8a	0.016524095
61	0x3c879231	0.016549202
62	0x3a99a3d3	0.0011721797
63	0x3c1e7566	0.009671545
64	0xbf0001c6	-0.50002706
65	0x3a945e94	0.001131969
66	0x3b9d16ff	0.004794001
67	0x3cce8ac7	0.025212659
68	0xbc172605	-0.009225373
69	0x3b8e708f	0.004346914
70	0xbf1fdb47	-0.62443966
71	0x3b394da3	0.0028275035
72	0xbf195bf7	-0.5990595
73	0x3d0a12fd	0.033709515
74	0xbb632d4f	-0.0034664457
75	0xbd3f01cf	-0.046632584
76	0x3e1a8f95	0.15093835
77	0xbea809fa	-0.32820112
78	0x3c43d7b5	0.011953284
79	0x3c173ac3	0.0092303185
80	0xbc3cc579	-0.0115216905
81	0x3d0aa70d	0.03385072
82	0xbaccfc41	-0.0015639142
83	0x39ee23f1	0.00045421676
84	0x3c9397d5	0.018016735
85	0x3b3d4e3f	0.002888575
86	0xbcaab948	-0.020840302
87	0x3853ca4a	5.0494717e-05
88	0xb8e15d96	-0.00010746268
89	0xb9796671	-0.00023784653
90	0xbe50edd1	-0.2040322
91	0x3e6f8368	0.23389971
92	0x3db157d7	0.08659332
93	0x3a637484	0.0008676725
94	0xb8a57436	-7.889459e-05
95	0x3a720f2f	0.000923383

en.layers.0.0.bias f4 [32]
0	0xbd4da148	-0.050202638
1	0x3dac739d	0.08420489
2	0x3e31d505	0.17366417
3	0xbdfb5c66	-0.12273483
4	0xbd497f13	-0.049193453
5	0xbddaa7cb	-0.10676535
6	0xbeee5e01	-0.46556094
7	0xbe94d931	-0.29071954
8	0xbdbea56e	-0.09308897
9	0xbdede5b3	-0.11616077
10	0xbc659ab7	-0.014013938
11	0xbd87a044	-0.06622365
12	0x3bba2aca	0.0056813704
13	0xbe297a8a	-0.16550651
14	0xbd09d68c	-0.033651873
15	0xbdad38bb	-0.08458086
16	0xbd5cf239	-0.05394194
17	0xbdce46db	-0.10072108
18	0xbda216ee	-0.0791453
19	0xbd503753	-0.05083401
20	0xbda3de20	-0.08001351
21	0xbf7dc07f	-0.9912185
22	0xbdebaf94	-0.11508098
23	0x3a66677f	0.0008789226
24	0x3d77e5f9	0.060522053
25	0xbc30f68e	-0.010800971
26	0xbdce2b77	-0.10066884
27	0xbdb8a301	-0.090154655
28	0xbde960ad	-0.113953926
29	0xbaa2f621	-0.0012432971
30	0x3ea88f07	0.3292162
31	0xbc16d299	-0.009205484

en.layers.1.0.weight f4 [64, 32]
0	0x80eea6b8	-2.1916656e-38
1	0x8758d774	-1.631335e-34
2	0x02043826	9.713942e-38
3	0x00ef52d0	2.1978391e-38
4	0x00ef8540	2.1996485e-38
5	0x80a05790	-1.4725091e-38
6	0x00bf9430	1.759374e-38
7	0x8836fa5c	-5.506293e-34
8	0x00a08898	1.474268e-38
9	0x00ee3a00	2.1877655e-38
10	0x80bea4b6	-1.7507831e-38
11	0x80a560a0	-1.518752e-38
12	0x01af90c3	6.449257e-38
13	0x00740720	1.0655474e-38
14	0x80ef7aa8	-2.1992684e-38
15	0x80ef3b28	-2.1969905e-38
16	0x80a52180	-1.5164874e-38
17	0x80a0d4a8	-1.4769966e-38
18	0x80a167e8	-1.482279e-38
19	0x00a49bd0	1.5116916e-38
20	0x00a61680	1.5252764e-38
21	0x80c24a00	-1.7842632e-38
22	0x80ee2180	-2.1868866e-38
23	0x01dad3dc	8.0384556e-38
24	0x002e43a0	4.248692e-39
25	0x883b5756	-5.637593e-34
26	0x00b644d8	1.6738757e-38
27	0x80b782c0	-1.68528e-38
28	0x80eee718	-2.1939749e-38
29	0x00a0bb48	1.4760863e-38
30	0x8713e1f6	-1.1125455e-34
31	0x00a49960	1.5116042e-38
32	0x00a5d540	1.5229357e-38
33	0xa750d473	-2.8980968e-15
34	0xa7cb68bd	-5.6457376e-15
35	0x00a36e08	1.5008658e-38
36	0x80a41f60	-1.5072277e-38
37	0x00a45770	1.5092388e-38
38	0xa1b1844c	-1.2029005e-18
39	0xa74093a2	-2.6725384e-15
40	0x80a55398	-1.5182845e-38
41	0x872b8f19	-1.2906663e-34
42	0xa5cdf706	-3.572922e-16
43	0x80a59f40	-1.5209985e-38
44	0xa7cf3891	-5.751537e-15
45	0xa0b37815	-3.0403243e-19
46	0x80ee6030	-2.1891354e-38
47	0x80a46780	-1.509815e-38
48	0x00ee9120	2.1908909e-38
49	0x00a3e370	1.5050775e-38
50	0x00ee4940	2.1883125e-38
51	0x00ee67e0	2.1894111e-38
52	0x00ee2e00	2.187335e-38
53	0x8954ed51	-2.5630157e-33
54	0x80a504a0	-1.5154516e-38
55	0xab1763cb	-5.3784467e-13
56	0xa90c03d5	-3.108957e-14
57	0xa70da7cf	-1.965865e-15
58	0x80ef2cbe	-2.1964734e-38
59	0x00a646e8	1.5270129e-38
60	0x00a49600	1.5114831e-38
61	0x80ee8f90	-2.1908349e-38
62	0xab8fd24a	-1.0219128e-12
63	0x00a39620	1.502304e-38
64	0x80ee36f8	-2.1876567e-38
65	0x01d7b351	7.9235833e-38
66	0x81e5f73e	-8.447609e-38
67	0x00ef0978	2.195208e-38
68	0x80ef67a0	-2.1985857e-38
69	0x80ee98b8	-2.1911633e-38
70	0x809e2073	-1.4521649e-38
71	0x008b47be	1.279087e-38
72	0x00a49060	1.5112813e-38
73	0x80a4a690	-1.5120773e-38
74	0x80938e0b	-1.3550773e-38
75	0x00ef8cc8	2.1999186e-38
76	0x804a33b6	-6.814377e-39
77	0x808da0ac	-1.3006443e-38
78	0x00a187a8	1.4834179e-38
79	0x00a480c8	1.510722e-38
80	0x00a4af80	1.5123979e-38
81	0x80a50270	-1.5153731e-38
82	0x80a583f8	-1.5200198e-38
83	0x80a06f80	-1.4733678e-38
84	0x00ee3cc8	2.1878652e-38
85	0x0127a3f6	3.0790692e-38
86	0x00ee8240	2.1903573e-38
87	0x820ab0c8	-1.0189373e-37
88	0x82f793cb	-3.6378217e-37
89	0x82a0e985	-2.364392e-37
90	0x80a166b8	-1.4822363e-38
91	0x80ee3ac8	-2.1877935e-38
92	0x00eec8d0	2.1928886e-38
93	0x80a0a168	-1.4751581e-38
94	0x847f9616	-3.0044022e-36
95	0x00a49568	1.5114618e-38
96	0x80a5bed0	-1.5221307e-38
97	0x0815c77b	4.5072545e-34
98	0x8b617073	-4.341802e-32
99	0x00eecdc0	2.1930657e-38
100	0x00a5be60	1.522115e-38
101	0x80a0a480	-1.4752691e-38
102	0x8992b028	-3.5313878e-33
103	0x0748cab5	1.5105898e-34
104	0x00a45d00	1.5094383e-38
105	0x80a3e858	-1.5052535e-38
106	0x093d39a8	2.2777157e-33
107	0x00a619f0	1.5253997e-38
108	0x0a0dee82	6.8337614e-33
109	0x8bcc8e56	-7.8792105e-32
110	0x80f81730	-2.2783521e-38
111	0x80a5a000	-1.5210254e-38
112	0x00a1aba0	1.4847082e-38
113	0x00ee62e8	2.1892329e-38
114	0x80ee8180	-2.1903304e-38
115	0x8087d7f0	-1.2475256e-38
116	0x00b84818	1.6923594e-38
117	0x08ffcbdb	1.539518e-33
118	0x80a41540	-1.5068644e-38
119	0x09d3f31a	5.1025014e-33
120	0x8c700ce6	-1.8492809e-31
121	0x8c61e299	-1.7401559e-31
122	0x80ef3220	-2.1966665e-38
123	0x00f0af98	2.210351e-38
124	0x00ee5058	2.188567e-38
125	0x80ee2a40	-2.1872005e-38
126	0x8c516464	-1.6130985e-31
127	0x00b608a0	1.6717154e-38
128	0x80ef2300	-2.1961239e-38
129	0xbcb2eff2	-0.02184293
130	0xbd030d75	-0.031995256
131	0x00ee4b60	2.1883888e-38
132	0x00ee7fc8	2.1902687e-38
133	0x00f28180	2.2270646e-38
134	0xbce82d0b	-0.02834179
135	0xbca70e7f	-0.020392654
136	0x00ef2af0	2.1964087e-38
137	0x80ee17c0	-2.1865368e-38
138	0xbcf4dd3a	-0.029890645
139	0x80a3f200	-1.5055999e-38
140	0xbd49cc7d	-0.04926728
141	0xbca7c09d	-0.020477587
142	0x00eed5e0	2.1933572e-38
143	0x00ee31b0	2.1874673e-38
144	0x80a475f0	-1.510333e-38
145	0x80ee6730	-2.1893865e-38
146	0x00a471e8	1.5101883e-38
147	0x80a51b40	-1.5162632e-38
148	0x00eea500	2.1916039e-38
149	0xba8a0e3f	-0.001053281
150	0x00a06240	1.4728925e-38
151	0xbcf5f81f	-0.03002554
152	0xbcc5786b	-0.024105271
153	0xbd12ec9a	-0.035870172
154	0x00ef0d88	2.1953538e-38
155	0xbd09f104	-0.033677116
156	0x00a4d030	1.5135705e-38
157	0x00ef0378	2.1949928e-38
158	0xbceeea70	-0.029164523
159	0x80a10380	-1.478677e-38
160	0x80ee9fd8	-2.1914189e-38
161	0x3b31dfdd	0.002714149
162	0xbc419d55	-0.011817296
163	0x80a550a8	-1.5181791e-38
164	0x80eeb840	-2.1922945e-38
165	0x00ef02a0	2.1949625e-38
166	0x3ca2f68d	0.019892955
167	0xbd0fbecb	-0.035094064
168	0x80a38d48	-1.5019868e-38
169	0x00ef7650	2.1991126e-38
170	0xbc1b3619	-0.009473347
171	0x00a545d8	1.5177912e-38
172	0xbc552018	-0.01300814
173	0xbcc12a33	-0.023579692
174	0x80ef7828	-2.1991788e-38
175	0x80a3f600	-1.5057434e-38
176	0x80ef0d08	-2.1953358e-38
177	0x80ef0638	-2.1950914e-38
178	0xbb671aa8	-0.003526369
179	0x80a3ed20	-1.505425e-38
180	0x00ef5e28	2.198246e-38
181	0xbcaef42e	-0.021356668
182	0x00b6c720	1.6785493e-38
183	0xbc143ef3	-0.009048211
184	0xbc9dc4ce	-0.019258883
185	0xbbf4352b	-0.007452627
186	0x00a4ff20	1.5152543e-38
187	0x00eef2e0	2.1943975e-38
188	0x00ef5140	2.197783e-38
189	0x00a56b00	1.5191241e-38
190	0xbc978786	-0.01849724
191	0x00a57098	1.5193248e-38
192	0x00a402a0	1.5061963e-38
193	0x81db6eb5	-8.060675e-38
194	0x01f9a2f8	9.1702003e-38
195	0x80a58b58	-1.5202844e-38
196	0x80b681b8	-1.6760595e-38
197	0x01229e04	2.9868071e-38
198	0x011e573f	2.9082613e-38
199	0x0163c294	4.1832918e-38
200	0x80ee0b98	-2.1861007e-38
201	0x80a5b240	-1.5216801e-38
202	0x80b8fc26	-1.6988185e-38
203	0x00a14380	1.480973e-38
204	0x0140d576	3.541798e-38
205	0x00797678	1.1154594e-38
206	0x00a17ad0	1.4829572e-38
207	0x00a62160	1.5256665e-38
208	0x00d03b20	1.9122993e-38
209	0x00ef2608	2.1962327e-38
210	0x80eef6e8	-2.1945421e-38
211	0x80b45500	-1.6560882e-38
212	0x80ef8850	-2.1997583e-38
213	0x818edc5d	-5.247877e-38
214	0x00ef3c70	2.1970364e-38
215	0x80a23f59	-1.4900075e-38
216	0x809636ff	-1.3795053e-38
217	0x807df6ef	-1.156802e-38
218	0x00a113c0	1.47926e-38
219	0x80ee31e0	-2.187474e-38
220	0x80a5c600	-1.5223886e-38
221	0x00ef2b88	2.19643e-38
222	0x81292b26	-3.1071355e-38
223	0x00eef118	2.1943336e-38
224	0x00a126f8	1.4799494e-38
225	0x80ba7f64	-1.7127101e-38
226	0x80cd1d8d	-1.8836878e-38
227	0x80eea3e0	-2.1915635e-38
228	0x00b688c8	1.6763128e-38
229	0x00a6245c	1.5257736e-38
230	0x810e9a99	-2.61922e-38
231	0x0010181b	1.478015e-39
232	0x00a495a0	1.5114697e-38
233	0x80ee6370	-2.189252e-38
234	0x008ea67e	1.3100367e-38
235	0x80a4dd98	-1.5140514e-38
236	0x819626f5	-5.51572e-38
237	0x80d1d3d3	-1.9269607e-38
238	0x80a55580	-1.5183528e-38
239	0x00a14158	1.4808956e-38
240	0x80a11718	-1.47938e-38
241	0x00ee78d8	2.1900199e-38
242	0x80ee1fa0	-2.1868193e-38
243	0x00a10080	1.4785694e-38
244	0x80a381f8	-1.501581e-38
245	0x00ed6064	2.1799591e-38
246	0x00a34a90	1.4995934e-38
247	0x01fb6e3e	9.236103e-38
248	0x000bb5a1	1.075347e-39
249	0x01fefa9e	9.366448e-38
250	0x80ee5f28	-2.1890984e-38
251	0x80a3d000	-1.5043802e-38
252	0x00a49520	1.5114517e-38
253	0x80ee9488	-2.1910131e-38
254	0x80b7e79a	-1.6888979e-38
255	0x00a43918	1.5081503e-38

en.layers.1.0.bias f4 [64]
0	0x88272bb5	-5.030611e-34
1	0xb13422f0	-2.6213307e-09
2	0x89cc428e	-4.91738e-33
3	0x8c88317e	-2.0983905e-31
4	0xbcf96989	-0.03044583
5	0xbc0a9604	-0.008458618
6	0x83817bfc	-7.610404e-37
7	0x831b8b29	-4.5710154e-37
8	0x829031fc	-2.1187588e-37
9	0x93d77f2a	-5.4399024e-27
10	0x86d82a4e	-8.131233e-35
11	0xbd5e5e32	-0.05428905
12	0xbb07637e	-0.0020658667
13	0xa689d257	-9.563297e-16
14	0x83c54156	-1.159362e-36
15	0xbcdb2d2e	-0.026754942
16	0x8bc0ba37	-7.4235895e-32
17	0xa1d95c02	-1.4728846e-18
18	0x8391a622	-8.560476e-37
19	0x9969b4fd	-1.2082368e-23
20	0x873e963f	-1.4338165e-34
21	0x88aea5d7	-1.0511233e-33
22	0xa4360065	-3.9465293e-17
23	0xbd4c0d9f	-0.049817678
24	0xbd1c7fc1	-0.038207773
25	0xa249e45b	-2.736147e-18
26	0x9f57aaac	-4.5669197e-20
27	0x3d6c1f04	0.057646766
28	0x929aad40	-9.761476e-28
29	0xa01dc7ee	-1.3364568e-19
30	0x83523586	-6.1774895e-37
31	0x92233ef4	-5.1511327e-28
32	0xb3e7ae4c	-1.078848e-07
33	0x86d0a0b9	-7.8477065e-35
34	0xa6527e80	-7.3029825e-16
35	0xa6e3bd6d	-1.5802633e-15
36	0x8816a3ef	-4.5331686e-34
37	0xbda6551e	-0.081217036
38	0xbcc0eca2	-0.023550335
39	0x85bf78b5	-1.8005894e-35
40	0xa1d69c72	-1.4542615e-18
41	0x84837bba	-3.0911577e-36
42	0x94838c3a	-1.328293e-26
43	0xa10d78a4	-4.7932325e-19
44	0x9277e638	-7.8223224e-28
45	0xa39d0bc8	-1.7026964e-17
46	0xb11a0951	-2.2415245e-09
47	0xb070c8e3	-8.759697e-10
48	0x991d12a7	-8.1204766e-24
49	0x85871b0c	-1.2705274e-35
50	0xbc1a6bff	-0.009425162
51	0xbd1df35f	-0.038562175
52	0x8218412c	-1.11859e-37
53	0x9d0b6b62	-1.8452012e-21
54	0x8b09c5e6	-2.6534122e-32
55	0x8a52baa6	-1.0146237e-32
56	0x93009261	-1.6228042e-27
57	0x8c3250fb	-1.373699e-31
58	0xa70559b8	-1.8506094e-15
59	0x94b55ee7	-1.8313762e-26
60	0xbcfb167c	-0.03065037
61	0x3caf7597	0.021418376
62	0xbce94344	-0.028474458
63	0xbb920b10	-0.004456885

en.layers.2.0.weight f4 [8, 64]
0	0x03c176ed	1.13708245e-36
1	0xb2ba943e	-2.1720663e-08
2	0x12fb31f6	1.5852643e-27
3	0x10c2b0b7	7.679178e-29
4	0xbc948ea8	-0.01813443
5	0x39e6daf3	0.00044032148
6	0x0ab36a17	1.727698e-32
7	0x02eacfb9	3.4502437e-37
8	0x850a4328	-6.5010635e-36
9	0x910c261f	-1.10558e-28
10	0x09e7d092	5.5807366e-33
11	0x3cb9d237	0.022683246
12	0xbcbc42f8	-0.022981152
13	0xad2532f1	-9.390475e-12
14	0x83265bfc	-4.888861e-37
15	0x3cf1f089	0.029533641
16	0x05c75baf	1.874755e-35
17	0xac48265c	-2.8443003e-12
18	0x82f65fe5	-3.6201492e-37
19	0x1a53caa6	4.3797475e-23
20	0x033257a5	5.241011e-37
21	0x841bfff8	-1.8337698e-36
22	0xa91f039e	-3.530823e-14
23	0x3cb1d653	0.021708643
24	0x3d1b4b13	0.037913393
25	0xa122562c	-5.500178e-19
26	0x1a61b5f7	4.66759e-23
27	0xb5d4c635	-1.5852917e-06
28	0x8e30572a	-2.1735643e-30
29	0x995baa9a	-1.1356487e-23
30	0x01ef3e32	8.788398e-38
31	0x9348fc40	-2.5367918e-27
32	0x347bf7d5	2.3466357e-07
33	0x01a5fea8	6.097684e-38
34	0xa7ee0bd1	-6.607108e-15
35	0xa1a9c84c	-1.1504904e-18
36	0x89bb97bf	-4.5161314e-33
37	0xb91eb7d1	-0.00015136531
38	0xbd1a00b1	-0.037598316
39	0x04ca22b4	4.752184e-36
40	0x1f7fd8b6	5.417761e-20
41	0x81be49c8	-6.990085e-38
42	0x98165f8f	-1.943529e-24
43	0x13913a55	3.6660666e-27
44	0x8f8e2e28	-1.402006e-29
45	0x9f2b98b2	-3.6336965e-20
46	0xaf3c132c	-1.7105312e-10
47	0x2dc4941e	2.2348397e-11
48	0xb0614561	-8.1953117e-10
49	0x8288ce9e	-2.0101996e-37
50	0xbc95bfe2	-0.018279973
51	0x3b75bfdb	0.0037498388
52	0x81df6980	-8.206865e-38
53	0xaa56ef1b	-1.9089975e-13
54	0x83aa115f	-9.99569e-37
55	0x8556afc7	-1.0094517e-35
56	0x1ccd06c4	1.3567511e-21
57	0x13bb4d56	4.7281696e-27
58	0x226c08d0	3.198863e-18
59	0x97ac00ba	-1.1115423e-24
60	0x3cac3b4f	0.021024374
61	0x3e13f426	0.14448604
62	0xbd025837	-0.03182241
63	0xba6bf152	-0.0009000498
64	0x80ee48f8	-2.1883024e-38
65	0x00ee9218	2.1909257e-38
66	0x00ee1610	2.1864763e-38
67	0x80a0fa98	-1.4783575e-38
68	0x80eece00	-2.1930747e-38
69	0x80ee6878	-2.1894324e-38
70	0x00a448f8	1.5087198e-38
71	0x80a1aa70	-1.4846656e-38
72	0x80a09758	-1.4747971e-38
73	0x80eeb818	-2.1922888e-38
74	0x00a57c98	1.5197553e-38
75	0x80a463d0	-1.5096827e-38
76	0x00eed418	2.1932933e-38
77	0x80a18bc8	-1.4835659e-38
78	0x80a60900	-1.5247921e-38
79	0x80a11f10	-1.4796658e-38
80	0x00a1ad38	1.4847654e-38
81	0x00ef09a8	2.1952148e-38
82	0x00a3ace0	1.5031202e-38
83	0x80eeb020	-2.192003e-38
84	0x00a061d8	1.4728779e-38
85	0x80eebc88	-2.192448e-38
86	0x80a453c0	-1.5091065e-38
87	0x80a17b40	-1.4829729e-38
88	0x80ee3ab0	-2.1877901e-38
89	0x80a04ba8	-1.472082e-38
90	0x00ef7018	2.1988895e-38
91	0xbd021ca8	-0.03176561
92	0x80a42108	-1.5072871e-38
93	0x80ef8b38	-2.1998626e-38
94	0x00ee63f8	2.189271e-38
95	0x00a46f10	1.5100863e-38
96	0x00a041c0	1.4717266e-38
97	0x80ee8a48	-2.1906454e-38
98	0x00ef6548	2.1985016e-38
99	0x80a0a550	-1.4752982e-38
100	0x00a132b8	1.480371e-38
101	0xbd020398	-0.03174171
102	0x00eecb40	2.192976e-38
103	0x00a158a0	1.4817308e-38
104	0x00ef11e0	2.1955096e-38
105	0x80a53228	-1.517085e-38
106	0x80a611c8	-1.5251071e-38
107	0x80a0b7f0	-1.4759664e-38
108	0x00eef480	2.1944558e-38
109	0x80ee7298	-2.1897957e-38
110	0x00a5ca18	1.5225354e-38
111	0x00a5aa10	1.5213864e-38
112	0x80ee9bb0	-2.1912698e-38
113	0x00eeb0f0	2.1920321e-38
114	0x00a49a18	1.51163e-38
115	0x80ef8618	-2.1996787e-38
116	0x00ef76d8	2.1991317e-38
117	0x80ef7740	-2.1991462e-38
118	0x80ee4180	-2.1880345e-38
119	0x80ee2088	-2.1868518e-38
120	0x80ef4248	-2.1972461e-38
121	0x80ee9178	-2.1909032e-38
122	0x00a06390	1.4729396e-38
123	0x80a12ae8	-1.4800907e-38
124	0x80ee7aa8	-2.1900849e-38
125	0xbce69e98	-0.028151795
126	0x80a190a8	-1.4837408e-38
127	0x80ef88c8	-2.1997751e-38
128	0x00a151b0	1.4814819e-38
129	0x80eec990	-2.1929155e-38
130	0x80a4bea8	-1.5129416e-38
131	0x80ee6e48	-2.189641e-38
132	0x80eea208	-2.1914974e-38
133	0x00ee0ab8	2.1860693e-38
134	0x80eed760	-2.193411e-38
135	0x00a1a1d0	1.4843562e-38
136	0x80ef7270	-2.1989736e-38
137	0x80a3e2b0	-1.5050506e-38
138	0x80a19580	-1.4839145e-38
139	0x80a0b058	-1.475694e-38
140	0x00ee22e0	2.1869359e-38
141	0x00a60f40	1.5250163e-38
142	0x00a3bce0	1.5036941e-38
143	0x80a5c278	-1.5222619e-38
144	0x80a355e8	-1.5000003e-38
145	0x00a06518	1.4729945e-38
146	0x80ef7158	-2.1989344e-38
147	0x80a355e8	-1.5000003e-38
148	0x80eeb280	-2.1920882e-38
149	0x00ee4578	2.1881769e-38
150	0x80a0edc8	-1.4778979e-38
151	0x00ee58d0	2.1888708e-38
152	0x80a0c728	-1.4765123e-38
153	0x80a43910	-1.5081492e-38
154	0x80ee53a8	-2.1886858e-38
155	0x00cfd060	1.9084699e-38
156	0x80eeca90	-2.1929514e-38
157	0x00a10b90	1.4789663e-38
158	0x80ee2a90	-2.1872117e-38
159	0x80eea7f0	-2.1917093e-38
160	0x00a0e480	1.477565e-38
161	0x80a4aa70	-1.5122163e-38
162	0x80ee1340	-2.1863754e-38
163	0x00eef260	2.1943796e-38
164	0x80ee88d0	-2.1905927e-38
165	0x00b65d55	1.6747542e-38
166	0x80ef2838	-2.1963111e-38
167	0x80a10388	-1.4786782e-38
168	0x00eeb188	2.1920534e-38
169	0x00a06fc0	1.4733768e-38
170	0x00ee4480	2.1881421e-38
171	0x00a14e38	1.4813574e-38
172	0x00a14a68	1.4812207e-38
173	0x00ef7808	2.1991743e-38
174	0x00ee3a30	2.1877722e-38
175	0x80a44a90	-1.508777e-38
176	0x00a57990	1.5196465e-38
177	0x00a410c8	1.5067041e-38
178	0x00a048f8	1.4719856e-38
179	0x00eef5c8	2.1945018e-38
180	0x80ef1898	-2.1957506e-38
181	0x80ee0e98	-2.1862083e-38
182	0x00a367f8	1.5006483e-38
183	0x80ef7b78	-2.1992976e-38
184	0x00eeaed0	2.1919559e-38
185	0x00a564e0	1.5189044e-38
186	0x00ee6a70	2.189503e-38
187	0x80a4cb18	-1.5133878e-38
188	0x00a61a88	1.525421e-38
189	0x8127203a	-3.0696177e-38
190	0x80a0c168	-1.476306e-38
191	0x80a5ad28	-1.5214974e-38
192	0x80a56440	-1.518882e-38
193	0x80a44160	-1.5084474e-38
194	0x00a3c340	1.5039228e-38
195	0x00a5fa00	1.524254e-38
196	0x80eea7c8	-2.1917037e-38
197	0x00a4c308	1.5130985e-38
198	0x008845b0	1.2514627e-38
199	0x00a64ab0	1.5271485e-38
200	0x00b80fe0	1.6903426e-38
201	0x00883a10	1.2510456e-38
202	0x80a5e710	-1.5235746e-38
203	0x00a38ee0	1.502044e-38
204	0x80a5a5e0	-1.5212362e-38
205	0x00a55e98	1.5186791e-38
206	0x00b5bad8	1.6689252e-38
207	0x80a43f38	-1.50837e-38
208	0x00a48120	1.5107343e-38
209	0x00a0c5a8	1.4764585e-38
210	0x80ef3580	-2.1967876e-38
211	0x80b60820	-1.6716975e-38
212	0x80a35500	-1.4999678e-38
213	0x80a5fde0	-1.524393e-38
214	0x80a3c848	-1.5041033e-38
215	0x00a187c0	1.4834213e-38
216	0x00a434c0	1.5079945e-38
217	0x80a63cc0	-1.5266485e-38
218	0x8199c2e8	-5.6483e-38
219	0x00a5e670	1.5235522e-38
220	0x80a359b0	-1.500136e-38
221	0x80a43b00	-1.5082187e-38
222	0x00a4d5a0	1.5137656e-38
223	0x80f77a60	-2.2727267e-38
224	0x8199bba0	-5.647255e-38
225	0x80a34b98	-1.4996304e-38
226	0x0199ebe4	5.654181e-38
227	0x00ef7480	2.1990476e-38
228	0x0088acc0	1.2551599e-38
229	0x80b84404	-1.6922131e-38
230	0x00a42cfc	1.5077159e-38
231	0x8199c4da	-5.648579e-38
232	0x0199f218	5.655071e-38
233	0x8199f3ca	-5.6553144e-38
234	0x00a354a8	1.4999555e-38
235	0x80a5efb8	-1.5238852e-38
236	0x80ef5f20	-2.1982808e-38
237	0x00a44010	1.5084003e-38
238	0x80b893d0	-1.6950756e-38
239	0x00a04a40	1.4720315e-38
240	0x019a18b8	5.6606135e-38
241	0x80a3d308	-1.504489e-38
242	0x00a3dea0	1.5049049e-38
243	0x00a4d800	1.5138508e-38
244	0x00a3dec0	1.5049094e-38
245	0x80b5cf78	-1.669665e-38
246	0x80a44e00	-1.5089002e-38
247	0x00a3d058	1.5043926e-38
248	0x0199ce4a	5.6499334e-38
249	0x80a51a80	-1.5162363e-38
250	0x80a4a0e0	-1.5118732e-38
251	0x00a58688	1.5201118e-38
252	0x80a3d368	-1.5045024e-38
253	0x976a5970	-7.5722364e-25
254	0x00a4a820	1.5121333e-38
255	0x00ef44c0	2.1973346e-38

en.layers.2.0.bias f4 [8]
0	0xb9fb8274	-0.00047971646
1	0xbc982be6	-0.01857562
2	0x98581dbe	-2.7932362e-24
3	0x9cd88b56	-1.4329698e-21
4	0xba34040e	-0.0006867059
5	0xba727683	-0.0009249227
6	0xbd00c9c9	-0.031442437
7	0xbcd7a6de	-0.026324686

de.layers.0.1.weight f4 [128, 11]
0	0xbdd31f62	-0.1030872
1	0x3c8e3d9d	0.017363364
2	0xbaf7affa	-0.001889705
3	0x3f113459	0.567205
4	0xb6090ae0	-2.042092e-06
5	0xbcf4e3a4	-0.029893704
6	0xbda4fab2	-0.08055629
7	0xbf69d85c	-0.91345763
8	0x3fdea693	1.7394584
9	0x3ff4a6cb	1.9113401
10	0xbd3785b8	-0.04480526
11	0x3ab3d9c1	0.0013721512
12	0xbea31577	-0.31852314
13	0x39ce708e	0.00039375242
14	0x401dbfeb	2.4648387
15	0xbcd8766a	-0.026423652
16	0xbd5baae5	-0.053629775
17	0x3e5d8975	0.21634467
18	0x3d93b55f	0.07212328
19	0x3e514640	0.20436954
20	0x3e3f5bf3	0.1868742
21	0xbe3ee7c1	-0.18643095
22	0xaa8dfabc	-2.5220613e-13
23	0xaa3a39f6	-1.6540228e-13
24	0xaac382a1	-3.47296e-13
25	0xa72709c9	-2.318121e-15
26	0xa714f485	-2.067168e-15
27	0xa5e91923	-4.043609e-16
28	0xa5835870	-2.2784805e-16
29	0x278657f8	3.7287847e-15
30	0xa7730263	-3.3724318e-15
31	0x266fd094	8.320246e-16
32	0x25ffa53c	4.4347416e-16
33	0x81d88f88	-7.9551826e-38
34	0x8031be80	-4.568278e-39
35	0x8643e38b	-3.6842596e-35
36	0x82deb6f2	-3.2724974e-37
37	0x8209a9d8	-1.0113913e-37
38	0x8023de20	-3.293926e-39
39	0x80ccf140	-1.8820985e-38
40	0x833ac23d	-5.488346e-37
41	0x81e59890	-8.434023e-38
42	0x81f00d78	-8.8181403e-38
43	0x81fff0a0	-9.4017486e-38
44	0x81dfc408	-8.2198554e-38
45	0x02afa392	2.5807824e-37
46	0x81f1c7c8	-8.881609e-38
47	0x0105c5f0	2.4570255e-38
48	0x0027da40	3.659878e-39
49	0x01bb09e8	6.8707166e-38
50	0x00477da0	6.565386e-39
51	0x00cda100	1.8884033e-38
52	0x01e922d0	8.5640636e-38
53	0x80c10240	-1.7725058e-38
54	0x80b15560	-1.628551e-38
55	0x84e16b31	-5.2995686e-36
56	0x878e5412	-2.1415197e-34
57	0x8822fc7e	-4.9046905e-34
58	0x053930ec	8.707644e-36
59	0x84a30fe3	-3.8335705e-36
60	0x82ecd5ce	-3.4799801e-37
61	0x035ede95	6.549545e-37
62	0x01168e90	2.7652932e-38
63	0x050a2c92	6.496915e-36
64	0x041dec4f	1.8563769e-36
65	0x837c691a	-7.4176795e-37
66	0x84a880fb	-3.961506e-36
67	0x00a4a6e8	1.5120896e-38
68	0x004f150a	7.262552e-39
69	0x07cf4cca	3.119103e-34
70	0x80f8bbff	-2.2842643e-38
71	0x80f19d30	-2.2188743e-38
72	0x80d081fe	-1.9148416e-38
73	0x00eb2b53	2.1596883e-38
74	0x8090110d	-1.3230428e-38
75	0x800e31d2	-1.303569e-39
76	0x00917b90	1.3360473e-38
77	0x9f5aba86	-4.6317584e-20
78	0xa03a1e62	-1.5764866e-19
79	0xa0b085da	-2.9904135e-19
80	0x9e8d02eb	-1.4930163e-20
81	0x9e0e03ac	-7.518177e-21
82	0x9bbce62f	-3.1250744e-22
83	0x9bc27db0	-3.2175831e-22
84	0x9e97b62a	-1.6063088e-20
85	0x1c80e786	8.530177e-22
86	0x9c2a04a1	-5.6254264e-22
87	0x1ca37bac	1.0818404e-21
88	0xa594b00b	-2.57932e-16
89	0xa6a880d1	-1.1692258e-15
90	0xa6bb5427	-1.2998541e-15
91	0x233665b6	9.887778e-18
92	0xa230180c	-2.3865178e-18
93	0xa1a1637c	-1.0936118e-18
94	0xa18fb6fe	-9.738495e-19
95	0xa3bf72a5	-2.0756815e-17
96	0x23121d54	7.920886e-18
97	0xa2df2922	-6.0487822e-18
98	0xa28fdbbc	-3.899288e-18
99	0x3b1b00d6	0.0023651621
100	0x3c002327	0.007820881
101	0x3e637c22	0.22215322
102	0x3ea004eb	0.31253752
103	0xc009456d	-2.1448624
104	0x3ee54cb6	0.44785088
105	0x3e09a91c	0.13443416
106	0x3cb651c8	0.022255793
107	0x3f65ed34	0.8981507
108	0x40112fba	2.268538
109	0xbef063ff	-0.4695129
110	0xbcec3de1	-0.0288381
111	0xbc3fd88d	-0.011709345
112	0xbc960317	-0.01831202
113	0x3ff8cc7c	1.9437404
114	0xbee99f6c	-0.45629442
115	0xbe4c5af1	-0.19956566
116	0x3d0c4f0c	0.034255072
117	0xbeaccc1a	-0.33749467
118	0xbd5065a1	-0.05087817
119	0x3f4a65db	0.7906167
120	0xbd38fb11	-0.04516131
121	0x3b403118	0.0029326137
122	0xbaf01e5d	-0.0018319596
123	0xbe4d4719	-0.20046653
124	0xbd6b9905	-0.057518978
125	0x3f6c7d80	0.92379
126	0xbd7c5590	-0.061605036
127	0x3df62cc5	0.12020258
128	0x3d48005d	0.04882847
129	0x4027d3d4	2.622304
130	0xbfe3a105	-1.7783514
131	0x3ea2e3bd	0.31814376
132	0xb6cc4c49	-6.0885545e-06
133	0xbba848fd	-0.005135654
134	0xbc4ada1a	-0.012381101
135	0x3be2af46	0.006917867
136	0x3f61ff59	0.88280255
137	0xbeb6724c	-0.35634077
138	0x3c107f15	0.008819361
139	0x3c9276e4	0.017878957
140	0x405c4c50	3.4421577
141	0x3f8d4521	1.1036721
142	0x3ef1c5f3	0.47221336
143	0xbc0513ba	-0.008122379
144	0x3b9b70f8	0.0047436915
145	0xbd80486a	-0.06263812
146	0x3d88338f	0.06650459
147	0xbfe90ace	-1.8206422
148	0x3ee8c13d	0.4545993
149	0x3c5e5d60	0.013572067
150	0xbd0cedc1	-0.034406427
151	0xc09d8495	-4.9224343
152	0x402fb804	2.7456064
153	0xbd384db9	-0.044995997
154	0x8bda4617	-8.4076005e-32
155	0xb410df15	-1.3492202e-07
156	0xa8a3d2d5	-1.8188069e-14
157	0xa73e3caa	-2.6400683e-15
158	0x809e604f	-1.4544557e-38
159	0x1cec5959	1.5640266e-21
160	0x90053a81	-2.6274695e-29
161	0x3234bc1d	1.0520151e-08
162	0xa41776ad	-3.2843428e-17
163	0x325d037d	1.2864686e-08
164	0x1c8385a4	8.703398e-22
165	0x3a0d1bdd	0.0005382875
166	0x3c082067	0.008308507
167	0x3e14f59d	0.14546819
168	0xbf6c3d20	-0.9228077
169	0x40102a6b	2.252589
170	0x3f076b97	0.52898544
171	0xbe001e34	-0.12511522
172	0x3e8f9e1b	0.28050312
173	0xc08408a9	-4.126057
174	0xc029542a	-2.645762
175	0xbefc4949	-0.49274662
176	0xa1c6d5d1	-1.3473599e-18
177	0xa62d1384	-6.004788e-16
178	0xa82f625f	-9.735782e-15
179	0x88abc751	-1.0338547e-33
180	0x8b794e88	-4.8014736e-32
181	0x80a32716	-1.4983207e-38
182	0x81960f17	-5.512295e-38
183	0x908e1dce	-5.6055046e-29
184	0x8b542fc2	-4.0865644e-32
185	0x80e06476	-2.060719e-38
186	0x81da2842	-8.013832e-38
187	0xb277e478	-1.442924e-08
188	0xba93bd52	-0.0011271632
189	0xbc85b7d7	-0.016323013
190	0xb1243fbe	-2.3901374e-09
191	0x3df81870	0.12114036
192	0xae259ee0	-3.7657766e-11
193	0xad7a64b5	-1.4233216e-11
194	0xbcddc2a0	-0.027070343
195	0xb0ee15f6	-1.7323021e-09
196	0x01f76e8b	9.089209e-38
197	0xb0bc1afd	-1.3686471e-09
198	0x3a7718dd	0.0009426007
199	0x3d50da93	0.0509897
200	0xbdac1bbd	-0.08403728
201	0x3e0ee5a6	0.13954791
202	0x3f121c52	0.57074463
203	0x3ec51b0f	0.38497207
204	0xbe08429c	-0.1330666
205	0xbc4ec528	-0.012620248
206	0x3ffcbbf1	1.9744855
207	0xbf73e2d9	-0.9526802
208	0xbf0fc79b	-0.5616395
209	0x3b76d4df	0.0037663502
210	0xbba7d264	-0.005121516
211	0x3d1dc512	0.03851802
212	0xbeebbaf2	-0.46041065
213	0x40322ad3	2.7838638
214	0x3e806f4d	0.25084916
215	0x3ec0a3ac	0.37624872
216	0x3eb058f7	0.34442875
217	0x3e29bf45	0.1657687
218	0x40308136	2.7578864
219	0xbeaec668	-0.34135747
220	0x3e88cf3e	0.26720613
221	0x3e077c70	0.13231063
222	0x3b198f8b	0.0023431506
223	0xbf09fb46	-0.5389904
224	0x3cdc749f	0.026911078
225	0xbddc7bca	-0.107657984
226	0x3e966957	0.29377243
227	0xbf523c1b	-0.82122964
228	0x3c442520	0.011971742
229	0x3cc0ec10	0.023550063
230	0x3e663235	0.2248009
231	0x018d4e99	5.1908e-38
232	0x893e42a0	-2.2901745e-33
233	0x81487231	-3.6816127e-38
234	0x80f3e460	-2.2397951e-38
235	0x8232e884	-1.3144103e-37
236	0x80c19c60	-1.7780348e-38
237	0x01108ce8	2.6549718e-38
238	0x8694f199	-5.602641e-35
239	0x86be1019	-7.149371e-35
240	0x8550e638	-9.8223975e-36
241	0x85854545	-1.2532705e-35
242	0xbe75e9fd	-0.2401504
243	0xbedff861	-0.43744186
244	0xbd8a48ff	-0.06752204
245	0xbf9056c6	-1.1276481
246	0x3f0de5ec	0.5542896
247	0xbe3632cf	-0.1779282
248	0xbd078055	-0.03308137
249	0xbe8433cc	-0.25820768
250	0xbf9a065a	-1.2033188
251	0xbc6c7ffb	-0.01443481
252	0x3e9aec3c	0.30258358
253	0xbbc2d4b3	-0.005945766
254	0x3f0498be	0.51795566
255	0x3b32c3d6	0.0027277372

de.layers.0.1.bias f4 [128]
0	0xbe821c6a	-0.25412303
1	0xbbb82dd4	-0.0056206975
2	0xaa325684	-1.5839592e-13
3	0x85804a38	-1.2064326e-35
4	0x838d2257	-8.295119e-37
5	0x860f34dd	-2.6934149e-35
6	0x97c55671	-1.27526475e-24
7	0xa0e1aa21	-3.8229064e-19
8	0xa63ae9ed	-6.484874e-16
9	0xbe14d41a	-0.14534035
10	0x3dcbf96e	0.09959684
11	0xbe152693	-0.14565496
12	0xbe576d9b	-0.21037905
13	0x3c64eeb9	0.013972932
14	0xbbd81585	-0.006594362
15	0xbe616cae	-0.22014114
16	0xa8236c12	-9.071752e-15
17	0xbd84a00f	-0.06475841
18	0xbd7b5115	-0.061356623
19	0xbe8993eb	-0.26870665
20	0x3d932a2a	0.071857765
21	0x88b7b8a9	-1.1057325e-33
22	0xbd12151c	-0.035664663
23	0x3e0855b1	0.13313939
24	0xbe6fe34f	-0.23426555
25	0x9f679d19	-4.90461e-20
26	0xbe411a95	-0.18857796
27	0x8ebfe499	-4.7305267e-30
28	0xba03e1c0	-0.0005030893
29	0x3e080d37	0.13286291
30	0x938424c6	-3.3357746e-27
31	0xa28f6db2	-3.8876372e-18
32	0xbcddd765	-0.027080247
33	0x3a5d918d	0.000845217
34	0xbdc84bc9	-0.0978008
35	0x3d1b2379	0.037875626
36	0x3e16f371	0.14741303
37	0x3dc07fec	0.09399399
38	0x861159b9	-2.7337387e-35
39	0x8db95fea	-1.1424596e-30
40	0xbd4cb18c	-0.04997401
41	0x3e12c941	0.14334585
42	0xbe29bf7a	-0.16576949
43	0x90e21797	-8.917763e-29
44	0x3dedcc97	0.11611288
45	0xbbb6eeb0	-0.005582653
46	0xbdaf432d	-0.08557735
47	0x9b3e4106	-1.5737442e-22
48	0x3dbf065f	0.09327387
49	0xbcadac9a	-0.021200467
50	0x8424d509	-1.9375928e-36
51	0xbb624545	-0.003452615
52	0xbd0b2125	-0.033967156
53	0x3bb706fe	0.0055855503
54	0x3e9a9898	0.30194545
55	0x3cc4017d	0.02392649
56	0x3be26ede	0.006910189
57	0x88d6896e	-1.2911966e-33
58	0xbe595a8b	-0.21225946
59	0x3bdf1b44	0.0068086702
60	0x88884f8f	-8.203906e-34
61	0x3b227b41	0.0024792703
62	0x8df85e3a	-1.5306864e-30
63	0xbec30556	-0.38090008
64	0xbe3981ae	-0.18115875
65	0x3dcd23c2	0.10016586
66	0xbc96720e	-0.018364932
67	0x85890b10	-1.2887482e-35
68	0x3dc93286	0.0982409
69	0xbdc1a9b9	-0.094562
70	0xbd0bc203	-0.03412057
71	0xbe7e3434	-0.24824601
72	0x3cce1c68	0.02516003
73	0xbcbcdbff	-0.023054121
74	0x85bf0b42	-1.7965689e-35
75	0xbf311bcd	-0.69183046
76	0xbe2ed189	-0.17072119
77	0x83ba0c62	-1.093494e-36
78	0x8ed3b61c	-5.219088e-30
79	0xbd6e3c3b	-0.05816291
80	0x3cef3899	0.029201793
81	0xbd1a8eeb	-0.037733953
82	0x956c54f4	-4.7726837e-26
83	0x3e090b92	0.1338332
84	0xbc97ba5e	-0.018521484
85	0xbe31634c	-0.17323035
86	0x3c8c1ca7	0.017103506
87	0xbcbb4048	-0.0228578
88	0xbcb9c382	-0.022676233
89	0xbe3eb21f	-0.18622635
90	0xbb1f141c	-0.002427346
91	0xbd308b7b	-0.04310177
92	0xbe255106	-0.16144189
93	0xbd80215f	-0.06256365
94	0x3e81c625	0.25346485
95	0x841bdcd2	-1.8321558e-36
96	0xbebecaca	-0.3726409
97	0x3d231d73	0.039823007
98	0x9137b90e	-1.4493179e-28
99	0xbbd3cc45	-0.00646356
100	0xbdfeef67	-0.12448006
101	0xbe80c588	-0.25150704
102	0x3d688d86	0.056775592
103	0x8e8711e8	-3.3297313e-30
104	0xbd4be6e0	-0.049780726
105	0x3d21e9d9	0.039529655
106	0xbde332d3	-0.11093678
107	0xbcdaa4ff	-0.026690004
108	0xbdfb564e	-0.12272321
109	0x3bb6c781	0.005577982
110	0x3b0e51d2	0.002171625
111	0xbb66f181	-0.0035239162
112	0xa2f067ac	-6.5161897e-18
113	0x8a4f6175	-9.985017e-33
114	0x3e013403	0.12617497
115	0x3b01d322	0.0019809683
116	0xa451f5c9	-4.552784e-17
117	0xa48449ac	-5.737068e-17
118	0xbd39b788	-0.045341045
119	0xbd193c67	-0.03741112
120	0x8711380a	-1.0925056e-34
121	0xbdd29e73	-0.10284128
122	0x3e03b52f	0.12862085
123	0x873d2f66	-1.4232709e-34
124	0xbeb28aba	-0.34871465
125	0xbcdab66d	-0.026698316
126	0x3d00fd8f	0.031491812
127	0x3d1adba4	0.037807122

de.layers.1.1.weight f4 [64, 128]
0	0x9083b55d	-5.1949824e-29
1	0x3b841e5c	0.0040319394
2	0x285325c4	1.1721042e-14
3	0x81058510	-2.452371e-38
4	0x81e797c8	-8.5073794e-38
5	0x05aeb210	1.6428291e-35
6	0x80a2dda4	-1.495686e-38
7	0x203d874d	1.605369e-19
8	0x25a06f11	2.7830837e-16
9	0x3df87e42	0.12133457
10	0xbdf400a2	-0.11914183
11	0x3da862ed	0.082219936
12	0xbeada0b0	-0.33911657
13	0xbe89c1f0	-0.26905775
14	0x00ef795c	2.1992219e-38
15	0xbe5f98cf	-0.21835636
16	0x01aa2cb1	6.2512266e-38
17	0x2b8053a4	9.118162e-13
18	0xbecea9e5	-0.40363994
19	0x3ec998d3	0.39374408
20	0xbddae170	-0.1068753
21	0x02052200	9.781054e-38
22	0xbc28627a	-0.010277385
23	0xbddc1b2b	-0.107473694
24	0xbcbf27a3	-0.02333433
25	0x181b49b7	2.0070497e-24
26	0x3d9386cb	0.07203444
27	0x8db3e8ff	-1.10878185e-30
28	0xab636e6a	-8.079983e-13
29	0x3da12af8	0.07869524
30	0x0d05761c	4.112596e-31
31	0x1aa2285a	6.706682e-23
32	0x311fbe22	2.3245623e-09
33	0x3a871b34	0.001030779
34	0x009e7fd8	1.455587e-38
35	0xbe247438	-0.16059959
36	0xbf002933	-0.50062865
37	0x3e926a90	0.28596926
38	0x8248d46c	-1.4754641e-37
39	0x0b0f4047	2.7589155e-32
40	0xbd9d90e0	-0.07693648
41	0xbd362af2	-0.04447455
42	0xbca94f8b	-0.020667812
43	0x0d8176f6	7.978878e-31
44	0xbe324e12	-0.17412594
45	0xbd9e9a91	-0.07744325
46	0x3e8fcaa4	0.2808429
47	0x18a90486	4.3690044e-24
48	0xbe0198a8	-0.1265589
49	0x3c3f9ec4	0.0116955675
50	0x02050710	9.773324e-38
51	0x3e78835c	0.2426886
52	0x3ce19e3f	0.027541278
53	0xbf3c7397	-0.73613876
54	0xbdc0b0ad	-0.09408698
55	0xbe0071a8	-0.12543356
56	0x3da9d6b0	0.082929015
57	0x00d04274	1.9125622e-38
58	0x3e87747d	0.2645606
59	0x3e747537	0.23872839
60	0x040b7cc4	1.6396661e-36
61	0x3e921d16	0.28537816
62	0x8acd9192	-1.979554e-32
63	0xbe84ef5c	-0.25963867
64	0xbdf4e027	-0.11956816
65	0xbde0ab34	-0.109701544
66	0x3ef45f50	0.47728968
67	0x053bf249	8.8371985e-36
68	0x3eee70ac	0.46570337
69	0xbf120ff1	-0.57055575
70	0xbf663b40	-0.8993416
71	0x3e88fb60	0.26754284
72	0x3e54ff6d	0.20800562
73	0xbf238e97	-0.6388945
74	0x0207ae70	9.968295e-38
75	0xbd6c215e	-0.05764901
76	0x3f883752	1.0641882
77	0x82023594	-9.566268e-38
78	0x0aa7a692	1.6144172e-32
79	0x1192dfcc	2.3172664e-28
80	0xbe280559	-0.1640829
81	0xbf172169	-0.59035355
82	0x125297b6	6.6451314e-28
83	0x3e9c1223	0.30482587
84	0xbe490da3	-0.19634108
85	0x3dc892c5	0.09793619
86	0x3dadefeb	0.08493026
87	0xbcfde88c	-0.030994676
88	0x3cacfe7e	0.021117445
89	0x3d2835ab	0.041066807
90	0x3e257c50	0.16160703
91	0x3503b946	4.907091e-07
92	0x3e9e7953	0.30951938
93	0x3dc41337	0.095739774
94	0x3e4f01c7	0.20215522
95	0x02097018	1.009734e-37
96	0xbedaf150	-0.42762232
97	0xbe16c648	-0.14724076
98	0x0c81b249	1.9982899e-31
99	0x3dd4c5bd	0.10389278
100	0xbeb99243	-0.362444
101	0x3e8a3552	0.26993805
102	0x3f22deca	0.636212
103	0x084406eb	5.8989737e-34
104	0xb8397a13	-4.4221128e-05
105	0x3dcb26ee	0.099195346
106	0xbebe8394	-0.3720976
107	0x3d3b773f	0.04576802
108	0xbf4763e6	-0.7788681
109	0xbda153c4	-0.07877305
110	0x3cfcbccb	0.030851742
111	0x3ce5189c	0.027965836
112	0x0093891b	1.3549002e-38
113	0x09bdd117	4.5696722e-33
114	0x3d4559cd	0.048181344
115	0x3e32b687	0.17452441
116	0x81da097c	-8.009416e-38
117	0x813a3e46	-3.4207484e-38
118	0xbe709ac3	-0.23496537
119	0x3ecb3f65	0.39696804
120	0x00f73650	2.2702851e-38
121	0x3c96caa8	0.01840718
122	0xbf397b5c	-0.72453856
123	0x80baaf92	-1.7144385e-38
124	0x3f19d74b	0.60094136
125	0xbebf346c	-0.37344682
126	0xbe9964f5	-0.29959837
127	0x3e872043	0.263918
128	0x00890840	1.2584423e-38
129	0x85a640d4	-1.5634379e-35
130	0x00a633a0	1.5263212e-38
131	0x00a131c0	1.4803362e-38
132	0x00a53640	1.5172318e-38
133	0x8087d800	-1.2475278e-38
134	0x808925e8	-1.2595061e-38
135	0x80a152d0	-1.4815222e-38
136	0x80a5bca0	-1.5220523e-38
137	0x8497216e	-3.553063e-36
138	0x85d5eaf8	-2.0116738e-35
139	0x00914cc0	1.334368e-38
140	0x83e0e6a8	-1.3218493e-36
141	0x009208e0	1.3411166e-38
142	0x00a187a0	1.4834168e-38
143	0x80ceb620	-1.8983446e-38
144	0x00ee9e90	2.191373e-38
145	0x80b67a40	-1.6757915e-38
146	0x008d2e00	1.2965307e-38
147	0x81942ea0	-5.443352e-38
148	0x02097ee4	1.0101586e-37
149	0x00ef3520	2.1967741e-38
150	0x00a55b40	1.5185591e-38
151	0x00826760	1.1975698e-38
152	0x00eedea0	2.1936711e-38
153	0x80ef3200	-2.196662e-38
154	0x00d01d00	1.9112186e-38
155	0x00a4c4c0	1.5131602e-38
156	0x80ef8780	-2.1997292e-38
157	0x85534c0e	-9.9351414e-36
158	0x00a0a140	1.4751525e-38
159	0x00b88da0	1.6948537e-38
160	0x80ee2c20	-2.1872677e-38
161	0x85b30c59	-1.6837615e-35
162	0x853dffd7	-8.933728e-36
163	0x858ec230	-1.3424949e-35
164	0x85040578	-6.2076146e-36
165	0x84cd20d8	-4.822543e-36
166	0x80a490e0	-1.5112993e-38
167	0x00a39620	1.502304e-38
168	0x81887eb8	-5.014034e-38
169	0x84cb3428	-4.777297e-36
170	0x80b92300	-1.7002122e-38
171	0x00eea6e0	2.1916712e-38
172	0x82f43a7c	-3.5886146e-37
173	0x80fe6f40	-2.3366125e-38
174	0x01964068	5.5193716e-38
175	0x00ef84a8	2.1996272e-38
176	0x85e90af0	-2.1915233e-35
177	0x859dbbd6	-1.4833209e-35
178	0x00a1bbe0	1.4852912e-38
179	0x859657e0	-1.4138212e-35
180	0x00ef48a0	2.1974737e-38
181	0x85cf46d5	-1.9492206e-35
182	0x850c1182	-6.585984e-36
183	0x85859412	-1.2561652e-35
184	0x85892d48	-1.2900052e-35
185	0x00889540	1.2543168e-38
186	0x82f55d38	-3.605302e-37
187	0x85a68eaa	-1.5662971e-35
188	0x80a5be80	-1.5221195e-38
189	0x85a764bb	-1.5741607e-35
190	0x80eec340	-2.192689e-38
191	0x80ce1380	-1.8925107e-38
192	0x82d1bd12	-3.081831e-37
193	0x85c58a23	-1.8576534e-35
194	0x8585e2da	-1.2590592e-35
195	0x80a18ee8	-1.483678e-38
196	0x00bdd020	1.743157e-38
197	0x80b56da0	-1.6661551e-38
198	0x858cb253	-1.3231043e-35
199	0x80a0cc80	-1.476704e-38
200	0x8079c1e0	-1.1181644e-38
201	0x00f5dc00	2.2578618e-38
202	0x00a541e0	1.5176488e-38
203	0x80e8f720	-2.1394487e-38
204	0x84e8e080	-5.474911e-36
205	0x80eee3d8	-2.1938583e-38
206	0x00a5aa20	1.5213886e-38
207	0x80b6b720	-1.6779753e-38
208	0x01d40808	7.7888025e-38
209	0x81ba8e88	-6.853013e-38
210	0x00ef4300	2.1972719e-38
211	0x81c8aa08	-7.371238e-38
212	0x85015b67	-6.082339e-36
213	0x01d0d738	7.6715957e-38
214	0x00583800	8.101613e-39
215	0x012c6890	3.166643e-38
216	0x85d2aec9	-1.9812511e-35
217	0x00b5aea0	1.6684868e-38
218	0x85a6aca9	-1.567399e-35
219	0x80ee2d70	-2.1873148e-38
220	0x0207e880	9.984958e-38
221	0x83ce7dc8	-1.213647e-36
222	0x8367185e	-6.791277e-37
223	0x80eefcb8	-2.1947506e-38
224	0x80973dc0	-1.3889312e-38
225	0x842f95a3	-2.0639861e-36
226	0x00ee4640	2.1882049e-38
227	0x85ad1542	-1.627665e-35
228	0x83dd796e	-1.30170915e-36
229	0x84e9abc7	-5.493579e-36
230	0x80bdfdc0	-1.7447937e-38
231	0x00ef6a30	2.1986776e-38
232	0x00b56780	1.6659354e-38
233	0x85a143a8	-1.516522e-35
234	0x006aee60	9.820075e-39
235	0x85083003	-6.4035076e-36
236	0x85089112	-6.4213345e-36
237	0x85b42f73	-1.6944549e-35
238	0x85ad6f09	-1.630963e-35
239	0x85914cae	-1.3663902e-35
240	0x80a4adc0	-1.5123351e-38
241	0x00a43c60	1.508268e-38
242	0x8603917a	-2.474524e-35
243	0x01c19898	7.1115964e-38
244	0x00a37620	1.5011561e-38
245	0x00a45860	1.5092724e-38
246	0x81e09bf0	-8.2508364e-38
247	0x0095de40	1.3763217e-38
248	0x00a4f1e0	1.514779e-38
249	0x00cfd020	1.9084609e-38
250	0x85822d46	-1.2241772e-35
251	0x80b5fae0	-1.6712222e-38
252	0x003598a0	4.922033e-39
253	0x80d6da20	-1.9731045e-38
254	0x81df31c0	-8.198865e-38
255	0x81ebbdd8	-8.659778e-38

de.layers.1.1.bias f4 [64]
0	0xbe28a073	-0.16467457
1	0x86d036dd	-7.832152e-35
2	0xbe19dcf0	-0.15025687
3	0xae7a9f9c	-5.698518e-11
4	0x8b24dfc7	-3.1753602e-32
5	0xb83fa183	-4.5688368e-05
6	0x3c201db4	0.009772707
7	0x91e1c73c	-3.5621528e-28
8	0xbce0a5b8	-0.02742277
9	0x3d2b74e5	0.041859526
10	0xbed3d096	-0.41370076
11	0x8e8d8f38	-3.48971e-30
12	0x86832780	-4.9334763e-35
13	0xbe66ff57	-0.22558342
14	0x3d402f5f	0.046920177
15	0x8522921a	-7.644038e-36
16	0xbea835a0	-0.32853413
17	0x3d225247	0.039629247
18	0xa1cdb86c	-1.3940156e-18
19	0xbed8be23	-0.42332563
20	0x8825b621	-4.9866973e-34
21	0x947e174e	-1.2828319e-26
22	0x3c28e1d2	0.010307746
23	0x3e4a40b6	0.19751248
24	0xbdfec139	-0.12439198
25	0xbdba8bfa	-0.0910873
26	0xbea5d148	-0.3238623
27	0x3d5abc9b	0.053402524
28	0xbeaa8b3e	-0.33309358
29	0x3d860244	0.06543401
30	0x9368eb5e	-2.9398562e-27
31	0x3c8a3511	0.016871007
32	0xbe074542	-0.13210014
33	0xbc4c3e0a	-0.012465963
34	0x8496a27f	-3.541406e-36
35	0x3e3119f4	0.17295057
36	0x3da43b5e	0.08019136
37	0x9ee6a636	-2.442094e-20
38	0x3e328064	0.1743179
39	0xbd245ba8	-0.040126473
40	0xbe4e878d	-0.20168896
41	0xb7227bbf	-9.684764e-06
42	0x3e51e135	0.20496066
43	0x82eacf2e	-3.4502125e-37
44	0x8b1dd265	-3.0395383e-32
45	0xbf21cd56	-0.6320394
46	0xb9dd91ed	-0.00042261128
47	0x3c8768df	0.016529499
48	0xbdc70627	-0.0971797
49	0x3d558eb1	0.052138034
50	0x3dc420ae	0.09576546
51	0xbcd0e7a6	-0.025501084
52	0xbde97cd7	-0.114007644
53	0xbd63d1f4	-0.05562015
54	0x83e35cd8	-1.3363177e-36
55	0x8a6c5214	-1.1378424e-32
56	0xbe7354fd	-0.23762889
57	0xbe2a1be9	-0.1661221
58	0xbcdb1eff	-0.026748179
59	0x3e3ccedf	0.1843829
60	0x3db7628f	0.089543454
61	0x889b74eb	-9.35621e-34
62	0x3d7e840f	0.06213766
63	0x98537871	-2.7331918e-24

de.layers.2.1.weight f4 [32, 64]
0	0x3d8c384c	0.06846675
1	0x0409b24c	1.6186143e-36
2	0xbdcbae33	-0.09945335
3	0x1d266ac9	2.2025124e-21
4	0x0a4a84ce	9.750924e-33
5	0xb253d7d8	-1.2330894e-08
6	0x3f05a17b	0.52199525
7	0x0e084cad	1.6800212e-30
8	0x3c9cd44b	0.019144198
9	0x3c8d7887	0.017269386
10	0x3dc5c43e	0.09656571
11	0x098f8f21	3.4560596e-33
12	0x0118fbd0	2.8098657e-38
13	0x3e0ae33d	0.13563247
14	0xbe68df06	-0.22741327
15	0x023b8dee	1.3779322e-37
16	0xbe047cdb	-0.12938254
17	0xbced9e19	-0.02900605
18	0x9fb89978	-7.8180924e-20
19	0xbe456409	-0.19276442
20	0x0573d1d9	1.1464348e-35
21	0x91846597	-2.0888537e-28
22	0x3d059a39	0.03261778
23	0xbe0eefa6	-0.13958606
24	0xbe13fe1d	-0.14452405
25	0x3d9aba56	0.07555072
26	0xbd9abcae	-0.07555519
27	0x3e4a6769	0.1976601
28	0x3e622664	0.22084957
29	0x3e7cfa5b	0.24704878
30	0x922ea9e7	-5.511414e-28
31	0xbdfb0dff	-0.12258529
32	0x3d035c9e	0.03207075
33	0x3e0b8156	0.13623556
34	0x042cebd3	2.0326788e-36
35	0x3e2ef743	0.1708651
36	0x3ecb1a7e	0.3966865
37	0x8baf1b3f	-6.7448543e-32
38	0x3e8e707e	0.278202
39	0xbd5419a1	-0.051782254
40	0xbd7c49d3	-0.06159384
41	0x2c7b19a8	3.5683487e-12
42	0xbd7739db	-0.06035791
43	0x84078264	-1.5929046e-36
44	0x0ce7d79d	3.5720953e-31
45	0x3dc625e7	0.09675198
46	0x3e67e230	0.22644877
47	0xbbd33734	-0.0064457897
48	0x3e9ddfe4	0.30834877
49	0x3e7b6887	0.24551593
50	0xbd6d2503	-0.057896625
51	0x3e74a21a	0.23889962
52	0xbd8c1750	-0.06840384
53	0x3e1800f8	0.1484412
54	0x8553a33c	-9.951154e-36
55	0x863ff978	-3.6106388e-35
56	0x3f0dc7f9	0.5538326
57	0xbea50049	-0.3222678
58	0x3e02f97a	0.1279048
59	0x3db4ce86	0.08828454
60	0x3d3f7a03	0.04674722
61	0x04a15ee3	3.7938058e-36
62	0xbd631177	-0.055436578
63	0x98f083d4	-6.217166e-24
64	0x3e94a5be	0.290327
65	0x04273f96	1.9659953e-36
66	0x3dab76fc	0.08372304
67	0x1f6803c4	4.9131026e-20
68	0x0a035118	6.3226726e-33
69	0xb5f4fe8e	-1.8253502e-06
70	0xbb9d2427	-0.0047955695
71	0x8e7afe04	-3.0937183e-30
72	0xbdb189b6	-0.086688444
73	0xbdc1516f	-0.0943936
74	0x3d75fd80	0.06005621
75	0x09ce630b	4.9685836e-33
76	0x81bbf708	-6.9047424e-38
77	0x3dae6547	0.08515411
78	0x3bf9e158	0.00762574
79	0x022398f3	1.2019243e-37
80	0xbe08419f	-0.13306282
81	0x3d555428	0.05208221
82	0x1fe5b8ee	9.729121e-20
83	0xbdd7bbdf	-0.105338804
84	0x05367f40	8.580971e-36
85	0x11dedf79	3.516315e-28
86	0x3d483c59	0.048885677
87	0xbdf2ab22	-0.11849047
88	0x3e75dfeb	0.24011199
89	0x3cbd536f	0.023111073
90	0x3d90ee87	0.070767455
91	0x3d9579d3	0.07298627
92	0x3e3aea93	0.18253545
93	0x3ee397ad	0.44451657
94	0x8ddf0d3f	-1.3746625e-30
95	0xbd882133	-0.06646957
96	0x3dc73aa4	0.09727982
97	0x3cd9b00b	0.026573202
98	0x8527b867	-7.8861716e-36
99	0xbd3b2fff	-0.04570007
100	0xbe1a2423	-0.15052848
101	0x83dc9f1a	-1.2966966e-36
102	0xbcba7af5	-0.022763709
103	0xbd83b6a2	-0.06431319
104	0x3cf82716	0.030292075
105	0x272e68cd	2.4204163e-15
106	0x3eab7c48	0.33493257
107	0x84340c42	-2.1164527e-36
108	0x0d104e20	4.4467465e-31
109	0x3df7ffe0	0.12109351
110	0x3dc8bb6b	0.09801372
111	0x3da770f8	0.08175844
112	0x3e8c541f	0.2740793
113	0x3eceb5f3	0.4037319
114	0xbd8be4b9	-0.06830735
115	0x3e811c84	0.25217068
116	0x3d6fe1c0	0.0585649
117	0xbd52e6b8	-0.05148956
118	0x843593da	-2.1344338e-36
119	0x8734e64b	-1.3609372e-34
120	0xbdb436b7	-0.087994985
121	0xbe812e85	-0.25230804
122	0x3ec194cc	0.37808836
123	0x3d0824fb	0.033238392
124	0xbd8ad178	-0.06778234
125	0x051b8315	7.312141e-36
126	0x3d03dd3b	0.032193404
127	0x19cead97	2.1370013e-23
128	0x863ce8ba	-3.552985e-35
129	0x00a17a60	1.4829415e-38
130	0x85430407	-9.169596e-36
131	0x80f7d080	-2.2758163e-38
132	0x00a4b560	1.5126086e-38
133	0x00ee7fd8	2.190271e-38
134	0x0818a356	4.5932837e-34
135	0x8199e878	-5.65369e-38
136	0x883d646f	-5.699318e-34
137	0x881fafa0	-4.805377e-34
138	0x00b6a140	1.6771906e-38
139	0x00ee0eb0	2.1862117e-38
140	0x00eef628	2.1945152e-38
141	0x8506778d	-6.322608e-36
142	0x8774d773	-1.8419835e-34
143	0x00ef73f0	2.1990274e-38
144	0x04e7c5bf	5.448944e-36
145	0x884a16a0	-6.081376e-34
146	0x80a35798	-1.5000609e-38
147	0x01bd4610	6.952817e-38
148	0x00ee8bf8	2.190706e-38
149	0x00ee3088	2.1874258e-38
150	0x87692ba7	-1.75418e-34
151	0x863b0caa	-3.5180095e-35
152	0x8629bbbc	-3.1923293e-35
153	0x06aa6561	6.4095856e-35
154	0x869a9aec	-5.8156e-35
155	0x880ccd92	-4.2371364e-34
156	0x85884825	-1.281588e-35
157	0x8995264d	-3.5906463e-33
158	0x80ef4c08	-2.1975958e-38
159	0x891eefbe	-1.9131284e-33
160	0x86c46eb5	-7.3889675e-35
161	0x86d08ffb	-7.8452464e-35
162	0x80eedb78	-2.1935579e-38
163	0x882e13c7	-5.238447e-34
164	0x07b330dc	2.6961644e-34
165	0x80a04e10	-1.4721683e-38
166	0x062cfcc2	3.2535302e-35
167	0x887e7540	-7.657317e-34
168	0x88391328	-5.569393e-34
169	0x00b6a9e0	1.6775e-38
170	0x87948db3	-2.2351848e-34
171	0x00ee4f60	2.1885322e-38
172	0x00a04a58	1.4720349e-38
173	0x86136ce2	-2.7727622e-35
174	0x07c859e2	3.0145484e-34
175	0x87ace017	-2.6011392e-34
176	0x89213430	-1.9404209e-33
177	0x8982c919	-3.1485473e-33
178	0x8770c9e0	-1.8114919e-34
179	0x892af104	-2.057633e-33
180	0x887908f8	-7.4941255e-34
181	0x0668a0c3	4.375246e-35
182	0x00ee0c00	2.1861153e-38
183	0x80ee74b8	-2.1898719e-38
184	0x052e87e4	8.2064e-36
185	0x865b7bc0	-4.128024e-35
186	0x877bc232	-1.894021e-34
187	0x8705ac4a	-1.0056439e-34
188	0x87fa5a1c	-3.766878e-34
189	0x0199bcd0	5.6474256e-38
190	0x889a3de7	-9.283091e-34
191	0x80a066d8	-1.4730573e-38
192	0x3f2929a1	0.66079146
193	0x808edec0	-1.3120548e-38
194	0x3f06cea9	0.5265909
195	0x8091cc64	-1.3389468e-38
196	0x820a8d94	-1.017927e-37
197	0x1b5d85c8	1.8323919e-22
198	0xbd34751e	-0.044057004
199	0x0a6db8f5	1.14459215e-32
200	0x3e0c367f	0.13692664
201	0x3e609841	0.2193308
202	0x142378f7	8.253253e-27
203	0x843da0f0	-2.2290742e-36
204	0x819f80e8	-5.8592347e-38
205	0xbbc1e5c5	-0.0059172832
206	0xbec98c7b	-0.3936499
207	0x00b6f3e0	1.6801546e-38
208	0x3e83cffd	0.2574462
209	0x3e19b286	0.15009508
210	0x1b94e419	2.463195e-22
211	0x00a0bc50	1.4761233e-38
212	0x01bb53d0	6.8813216e-38
213	0x8f077518	-6.678565e-30
214	0xbd90407b	-0.07043549
215	0xbda8b472	-0.08237542
216	0xbba66e84	-0.0050790925
217	0x3bf33b00	0.007422805
218	0xbf90cb61	-1.1312066
219	0x3e4b4653	0.19851045
220	0xbd09e84d	-0.033668805
221	0x3bd4ba7e	0.006491958
222	0x8a36f773	-8.809521e-33
223	0xbe3a0401	-0.1816559
224	0xbfe302e8	-1.7735262
225	0xbec4a6d6	-0.38408536
226	0x0195db88	5.504897e-38
227	0x3e2431da	0.16034642
228	0xbe703656	-0.23458228
229	0x80ee7baa	-2.190121e-38
230	0xbc92261d	-0.01784044
231	0xbe04bdcd	-0.12963028
232	0x3e17b2d3	0.1481431
233	0x009fad2b	1.4663965e-38
234	0xbe11ed2b	-0.14250629
235	0x020cd8ec	1.0347829e-37
236	0x87b0ee63	-2.6621648e-34
237	0xbe0eccd0	-0.13945317
238	0x3d3df4d6	0.046376072
239	0x3f1968b1	0.5992537
240	0x3df9e64a	0.12202127
241	0x3d6cf43c	0.057850108
242	0xbe4542c6	-0.19263753
243	0xbe4428b0	-0.19156146
244	0xbccc45a1	-0.024935545
245	0xbdb4d5fd	-0.088298775
246	0x820a92c8	-1.0180763e-37
247	0x01ed77a8	8.723175e-38
248	0xbd07ed0e	-0.033185057
249	0x3ea1e5e0	0.31620693
250	0xbedf2de5	-0.43589702
251	0xbda80748	-0.08204514
252	0xbf5cb525	-0.86213905
253	0x81a54e20	-6.072353e-38
254	0x3df997f0	0.12187183
255	0x9136b7b2	-1.4413874e-28

de.layers.2.1.bias f4 [32]
0	0x3dacf568	0.08445245
1	0x3d8bcfd4	0.068267494
2	0x89107ede	-1.7393022e-33
3	0xbdd77102	-0.105196014
4	0x8b96d1e1	-5.809369e-32
5	0xbd65dbe1	-0.056117896
6	0xbeebfade	-0.46089834
7	0x3e32a814	0.17446929
8	0x3e1f74aa	0.15571848
9	0x8c9d30f2	-2.4219138e-31
10	0xb166d2f9	-3.358933e-09
11	0x3ea222fd	0.3166732
12	0x927b4e31	-7.9298013e-28
13	0x908fba9f	-5.669109e-29
14	0x3e48a9c2	0.19596007
15	0xbdd113e9	-0.10208876
16	0x3e16a768	0.14712298
17	0x3d40633c	0.046969637
18	0x3d8b8304	0.068120986
19	0x3e60cb53	0.21952562
20	0xbdd87863	-0.10569837
21	0xbf1c03e9	-0.60943466
22	0x3da77777	0.08177083
23	0xbd14fcdf	-0.03637397
24	0x8e3925c2	-2.282119e-30
25	0xbc0f568d	-0.008748663
26	0xbc439fe5	-0.011939977
27	0xbd4158e4	-0.047203913
28	0xbe6899c2	-0.22714904
29	0x3d626e20	0.055280805
30	0x89460d5c	-2.3839665e-33
31	0xbcf6604d	-0.030075217

de.layers.3.1.weight f4 [3, 32]
0	0xbe460cc0	-0.19340801
1	0xbce08740	-0.027408242
2	0x87eb5a27	-3.5411857e-34
3	0x3a7e1e38	0.0009693834
4	0x0d7aca58	7.728076e-31
5	0xbdba20f2	-0.09088315
6	0x3c3ced5d	0.011531201
7	0x3e59d4b9	0.21272554
8	0xbe43a5c1	-0.19106199
9	0x893f9b56	-2.3063827e-33
10	0x37d1a10e	2.4989738e-05
11	0xbc623838	-0.013807349
12	0x910b5cff	-1.0993823e-28
13	0x1fd02352	8.814986e-20
14	0xba8f61a7	-0.0010939137
15	0x3e8c26e9	0.27373436
16	0xbe2dcc19	-0.16972388
17	0xbc1e31bc	-0.009655412
18	0x3da724c4	0.08161309
19	0xbe2e6257	-0.17029701
20	0x3e25f336	0.16206059
21	0xbd150cf3	-0.036389302
22	0xb9de810d	-0.0004243929
23	0xbc952a34	-0.0182086
24	0x0d395ef3	5.7121817e-31
25	0xbdd61314	-0.104528576
26	0xbd5d2d4a	-0.05399827
27	0x3c1d5e1a	0.009604955
28	0xbd9778db	-0.07396098
29	0xbcb84104	-0.02249194
30	0x0c704ff4	1.8512987e-31
31	0x3cfaaa0a	0.030598659
32	0x3e0b29f8	0.13590229
33	0x3e64725c	0.2230925
34	0x095d3b00	2.6629649e-33
35	0xbab429ce	-0.0013745369
36	0x8c2461a4	-1.2663483e-31
37	0xbda90634	-0.08253136
38	0x3de72e9f	0.11288189
39	0xbe81bed7	-0.25340912
40	0xbba98860	-0.005173728
41	0x898de856	-3.4163003e-33
42	0x2fa65ade	3.025979e-10
43	0x3c8d3575	0.017237404
44	0x923c9339	-5.9503806e-28
45	0x99d2717e	-2.175933e-23
46	0xbe2572ef	-0.16157125
47	0x3e1c89f2	0.15286997
48	0x3d357221	0.044298295
49	0xba81de82	-0.0009908231
50	0xbd89b18f	-0.0672332
51	0xbe24a0a8	-0.1607691
52	0x3e50909c	0.20367664
53	0x3dcf8e02	0.10134508
54	0xbe2ca008	-0.16857922
55	0xbd46b657	-0.048513737
56	0x0d43580c	6.0194997e-31
57	0x3db30d70	0.087427974
58	0x3cbb3809	0.022853868
59	0xbd26e25f	-0.040743228
60	0xbd4f2258	-0.050569862
61	0x3e4862fb	0.19569008
62	0x8b095ad2	-2.6453566e-32
63	0xbd0015ee	-0.031270914
64	0xbe06be07	-0.13158427
65	0x3e8466bb	0.25859627
66	0x87102cad	-1.0846485e-34
67	0xbe3d8863	-0.18509059
68	0x8ca61a9f	-2.5592372e-31
69	0xbd3381c9	-0.043824945
70	0x3d1624dc	0.036656246
71	0x3d9f954c	0.07792148
72	0xbe121942	-0.14267448
73	0x07be9984	2.867825e-34
74	0x2d8132a3	1.468809e-11
75	0xbf50f384	-0.81621575
76	0x8f2a3c5e	-8.3932734e-30
77	0x0999b530	3.7003798e-33
78	0x3f3979f8	0.72451735
79	0x3d287b58	0.041133255
80	0x3f202108	0.625504
81	0xbdb408e3	-0.087907575
82	0xbea42dc3	-0.32066163
83	0xbdca26b4	-0.09870663
84	0x3dc4915b	0.09598037
85	0xbc8b5907	-0.017010225
86	0xbeab6845	-0.3347799
87	0x3c7b72a8	0.01534716
88	0x0d4ba086	6.274743e-31
89	0xbe91fd68	-0.28513646
90	0x3da42d93	0.08016505
91	0xbce8f70e	-0.028438117
92	0x3ce29823	0.027660435
93	0xbe1cfd6b	-0.15331046
94	0x09f9da21	6.0149697e-33
95	0x3d00b284	0.031420246

de.layers.3.1.bias f4 [3]
0	0x3c93eb4c	0.018056534
1	0xbdc32986	-0.09529404
2	0xbdaf277e	-0.085524544
