simulation/weight/unmasked_Adam_lr_0.001_hyper_[1.0, 3.0, 0.3, 1e-07, 1e-07, 1e-07, 0.0, 10]_batch_16-07-14-05-48.pt (torch, 65447 bytes, 15 tensors)

en.layers.0.0.weight f4 [32, 3]
000000 4b 36 8a be f5 87 a3 3e 81 25 c0 3e 1e 87 16 bf
       -0.26994547 0.31939664 0.37528613 -0.5879992
000010 b4 4b 95 bd 4b 77 73 3d 97 0c 90 be dd e9 05 3e
       -0.0728983 0.05943994 -0.28134605 0.13077493
000020 a0 3d c1 3e 25 1e 68 3e 0a dc e7 be 3d 3a 54 be
       0.3774233 0.22667749 -0.45285064 -0.20725341
000030 85 dc c5 be 76 83 ba be 14 1a 3a be cd ed 05 3e
       -0.38644806 -0.36428422 -0.1817401 0.13078995
000040 09 1d bb 3e 3b 0d 36 3d 4b 1a b0 3e 8b 5c f1 3d
       0.3654559 0.04444621 0.3439506 0.11785229
000050 dc 8c 68 3d 25 5f 90 3e 3f e6 db bd e4 55 cf 3e
       0.05677496 0.2819759 -0.10737275 0.40495217
000060 6d f1 e6 3d ac 14 d1 be ac 31 e6 3e fd 24 f8 be
       0.11276517 -0.40836084 0.44959772 -0.4846572
000070 30 7b c5 3e f7 a4 d0 3e 8f 93 17 be 7a df cc 3e
       0.38570547 0.40750858 -0.14802383 0.4001425
000080 1c a5 e6 be 95 03 47 be cb ed e0 bc 3c 18 b6 bd
       -0.45047843 -0.1943496 -0.027457139 -0.08891341
000090 7c 89 a4 be 4a 6c f2 be 25 9e 95 3d a5 95 d0 bd
       -0.32136142 -0.47348243 0.07305554 -0.101847924
0000a0 8d f0 cb be 9b 1f de bd 1b 76 d2 be d2 6d c0 bc
       -0.39831963 -0.10845872 -0.41105732 -0.023489866
0000b0 14 be 6c be 37 43 a0 3e 1b 16 3a 3e 01 94 7f be
       -0.23119384 0.3130128 0.18172495 -0.24958803
0000c0 4b 18 64 be 8f 0b 05 bd 2a 16 98 3e 5d 00 40 be
       -0.22274892 -0.032481726 0.2970441 -0.18750139
0000d0 48 10 aa bd 31 57 a5 be 54 f6 a1 3d 21 e2 9b be
       -0.08303887 -0.32293084 0.079083115 -0.3044596
0000e0 a7 ad 33 3d e5 7c b2 3d 15 fb a2 be 8b 21 d1 bd
       0.04386678 0.08715228 -0.31832185 -0.10211476
0000f0 5d 13 d3 3e 77 44 b6 bd 63 a4 7e 3e 71 a2 9b be
       0.4122571 -0.088997774 0.24867396 -0.3039737
000100 31 78 ea 3e 5a d3 17 3e 27 bd 35 3e 4e 22 9b 3e
       0.45794824 0.14826718 0.17747937 0.3029961
000110 86 cf 22 3e f5 36 9b 3e 57 0e 67 3e 32 52 81 be
       0.15899476 0.30315366 0.22564064 -0.25258023
000120 3f aa 7f 3e a3 33 d7 3e 68 fe d3 3e 9e 83 e2 3e
       0.24967287 0.42031583 0.41405034 0.4424104
000130 73 c1 75 3d de d1 6d be 52 ee 79 3e 6f a7 d2 3e
       0.05999894 -0.23224589 0.24407318 0.41143367
000140 90 f3 22 bd ac f6 4e bd 79 8b ec 3e 86 4f 57 3e
       -0.03978306 -0.050528213 0.4620016 0.2102643
000150 ea 3c ee 3e 80 0c 0d bf 49 e4 ab be 92 ff 3a bd
       0.4653085 -0.550972 -0.33572605 -0.045653887
000160 0e ca 5a bc c9 07 52 3d 75 2c e0 3e 3b c9 af 3e
       -0.013353838 0.051276956 0.43783918 0.34333214
000170 cc e2 ca bd c4 7a 90 bc 44 d1 c9 be bf fe ae 3d
       -0.09906539 -0.017636664 -0.3941747 0.08544683

en.layers.0.0.bias f4 [32]
000000 c5 fd d7 3e c3 1a b9 be a9 44 3b 3e 52 4e 29 bd
       0.42185798 -0.3615323 0.1828791 -0.041334458
000010 62 bf 98 be cf 66 40 3c 2e 4a fb be c6 b5 8e bd
       -0.29833513 0.0117432615 -0.49080032 -0.06968264
000020 79 13 8d 3e 7b 49 9b 3d d0 01 b2 be 2c b9 c8 3e
       0.2755392 0.07582375 -0.34767008 0.39203775
000030 61 dd e7 be f9 d9 02 3f 81 9e 1f bf 9e 0a 99 3e
       -0.45286086 0.5111385 -0.6235123 0.29890913
000040 b6 ae d9 bc db 01 e6 3c 70 78 95 3e 84 9a f9 be
       -0.026572566 0.028077057 0.2919345 -0.487507
000050 1c b3 cf 3e 58 4d c0 3e 9c da cc be 68 9a 74 be
       0.40566337 0.3755901 -0.40010536 -0.23887026
000060 38 c1 05 bf 3a a8 04 bd d1 29 d5 3e f0 81 e8 be
       -0.52247953 -0.032386996 0.41633466 -0.45411634
000070 63 89 cc be c7 59 5a 3e ce fd ed 3e 8f 57 fd 3e
       -0.39948568 0.2132331 0.464827 0.49480864

en.layers.1.0.weight f4 [64, 32]
000000 9a 8e d9 bd b8 52 15 3e 3d 4b 28 3d 45 93 9e bd
       -0.10622902 0.14582336 0.041087378 -0.07742933
000010 57 9d d8 bc 8a 77 31 be 03 78 95 bd 9e c5 b9 bd
       -0.026442213 -0.17330757 -0.07298281 -0.090708956
000020 6f e4 1e be 50 c7 f0 bd 60 73 dd 3d 24 4a dd 3d
       -0.15516828 -0.11756766 0.10813022 0.10805157
000030 a7 5f f6 3d 55 f4 02 be 6c 1e 1d 3d e0 42 95 bd
       0.12029963 -0.12788518 0.03835909 -0.07288146
000040 3d 32 cb 3c 18 ff 99 3b 3d 2a 64 bd 3c 32 00 be
       0.024804229 0.004699599 -0.055704344 -0.12519163
000050 5a d2 bf 3d 4c 67 d2 3d db 0d 5a bd 9c 75 32 3e
       0.09366293 0.102736086 -0.05323587 0.17427677
000060 37 9b fd bd c8 4f 01 be c1 7a 6f bd 8f b0 53 bd
       -0.123831205 -0.1262809 -0.058466677 -0.05168205
000070 ae ab 10 be 95 2d 46 be 1f 35 4b bd ee b1 16 be
       -0.1412799 -0.19353326 -0.049611207 -0.14716312
000080 c8 34 39 be d0 44 3c be b2 23 02 3b 83 78 93 3d
       -0.1808654 -0.18385625 0.0019857702 0.0720072
000090 b0 86 bc bd e1 c7 45 3b 8a 74 1d 3d 58 d4 64 3d
       -0.09205377 0.0030178952 0.03844122 0.05586657
0000a0 4c 30 f1 3c ec 68 99 bc 8b a4 13 be 22 5e d3 bc
       0.029441975 -0.018726788 -0.14418237 -0.025801722
0000b0 25 86 1e be c7 c0 99 3d bf e3 8b 3d 3d a8 96 3c
       -0.1548086 0.075074725 0.068305485 0.01839077
0000c0 de be d9 bd 0a cc 26 be 35 5b ef bd 21 24 77 3c
       -0.10632108 -0.16288772 -0.11687318 0.015084297
0000d0 11 30 06 3e 1f 0b 08 be 74 7b 48 be 93 13 bd 3d
       0.13104273 -0.13285492 -0.19578344 0.09232249
0000e0 0f 3b 55 bd de ea b9 bc fc 44 12 3d d0 7e 4d bc
       -0.052058276 -0.022695001 0.03571032 -0.0125424415
0000f0 b6 d1 e9 bd dd b5 bb 3d 25 e4 e2 bc 12 bb 04 be
       -0.11416952 0.09165547 -0.027696678 -0.12961987
000100 2c d1 ba 3c 7c d4 41 be 1d 37 04 be 35 c8 09 3d
       0.022804819 -0.18928713 -0.12911649 0.033638198
000110 e7 e3 33 be 7c b4 d4 bd f4 82 52 bc b2 fb e6 3d
       -0.17567407 -0.10385987 -0.0128486045 0.11278476
000120 af 03 c3 3c b3 13 79 3d 38 74 96 3d fd b6 aa 3c
       0.023805467 0.060809802 0.07346386 0.020839209
000130 23 60 eb bd 0a 31 2a be cd bf 30 3d 49 83 27 be
       -0.11492946 -0.1662027 0.043151665 -0.16358675
000140 5d 5e 9b 3a cf bf 1a bd 9e 46 54 bd dd f0 ef 3d
       0.0011853684 -0.03778058 -0.05182516 0.11715863
000150 7b 31 0e 3e 87 32 da bc d5 83 4b bd f3 66 4d bd
       0.13886063 -0.026635421 -0.04968627 -0.05014701
000160 c8 1a 14 3b 02 bc 0e 3e de f8 c6 3d 50 18 17 3d
       0.002259897 0.13938907 0.097154364 0.03688842
000170 68 c8 47 3e 77 65 7b 3d c3 be 6a bd 5e 5c 89 bd
       0.19510043 0.06137606 -0.05731083 -0.06707071
000180 85 d5 9b 3d e5 5d 91 be 02 83 c3 bc b1 7a a2 bd
       0.07609085 -0.28391948 -0.02386618 -0.07933558
000190 08 1b 28 be eb 4f 06 3e 04 69 6f 3e 51 88 a5 bd
       -0.16416562 0.13116424 0.23379904 -0.08082641
0001a0 1b 10 4d bc fd bd 03 3c 7a ba c0 bc 7e c2 d2 bd
       -0.012516047 0.008040902 -0.023526419 -0.10291003
0001b0 84 d7 43 be a0 f6 85 bd 87 f3 57 bd 4c 26 aa 3d
       -0.19125181 -0.065411806 -0.05272248 0.08308086
0001c0 64 cb 91 bd 71 d7 87 3d 29 5c 6a 3d 3a 3d db 3d
       -0.07118872 0.06632889 0.057216797 0.107050374
0001d0 9c f9 cb 3d 2d 02 c9 bc 5b 83 f9 bc fc 26 d6 bc
       0.099597186 -0.02453717 -0.030458143 -0.026141636
0001e0 a0 6f bf bd 96 c6 5d 3e 1f 98 98 3c 09 f3 06 be
       -0.09347463 0.21657786 0.018627224 -0.13178648
0001f0 56 41 99 bd 8c f9 7a 3d d3 c7 b2 3d 17 12 02 3e
       -0.07483165 0.061273143 0.0872952 0.12702213
000200 a4 4d c3 3d 84 7b 73 3d 3b 84 b1 3d 94 ba 8d 3d
       0.09536293 0.059443966 0.08667799 0.069203526
000210 ef 8a 38 be 73 d6 2e be b7 cb 90 3d b9 5a 2d be
       -0.18021749 -0.17073993 0.070701055 -0.16929139
000220 1e 47 d2 bd 0e 30 3d 3e 9d 26 82 3d 0e 69 94 bd
       -0.10267471 0.18475363 0.06355021 -0.072466
000230 7d 7c 12 bd 1a ab 10 bc 64 3a c3 3d 13 8c 0c 3c
       -0.035763253 -0.008829856 0.095326215 0.008578318
000240 2c 35 00 be df 4c ad 3d 8d 5f 37 be 47 c3 0a bc
       -0.12520283 0.084619276 -0.17907543 -0.008469409
000250 6f 03 ff bb 67 50 c3 bd 89 1b 74 be 4b ff 2d 3e
       -0.0077823917 -0.0953682 -0.23838629 0.16991918
000260 59 2d 5c 3d 70 ca e8 3d a3 a0 01 bd bf 61 66 bd
       0.053754184 0.11366737 -0.031647336 -0.05624556
000270 75 33 29 3c c8 c2 7b 3d da 04 ea bd 85 8d 94 bd
       0.01032721 0.061465055 -0.114267066 -0.07253555
000280 51 2b aa 3b 01 cd 00 be ec f7 9c bd c2 e5 d5 3d
       0.005193152 -0.12578203 -0.07664475 0.104442134
000290 4e 8d 00 be ed 8e e4 bd 13 9d de bd 07 ae 40 bd
       -0.12553903 -0.111600734 -0.10869803 -0.047040965
0002a0 85 46 25 3d 06 24 f4 bd e4 46 03 3e 52 38 05 be
       0.040350456 -0.119209334 0.12820011 -0.13009766
0002b0 21 e6 78 bd 78 50 ea 3d 12 30 04 be f0 25 6d bb
       -0.060766343 0.114411294 -0.12908962 -0.0036185943
0002c0 6a 17 10 3e b5 ff d6 bd 68 7a 33 be aa c6 06 be
       0.14071432 -0.10497991 -0.17527163 -0.13161722
0002d0 6c 33 86 be e4 85 1a be d2 10 ba 3d 96 79 02 be
       -0.26211107 -0.15090138 0.090852395 -0.12741694
0002e0 73 46 88 3c 29 6e c9 3b b0 77 81 bd a2 68 11 bd
       0.016635155 0.0061471653 -0.06321657 -0.035500176
0002f0 43 ff 59 3d 04 b1 e7 bd 72 ef 44 bc f8 05 20 be
       0.053221952 -0.1131306 -0.012019979 -0.15627277
000300 b9 ec 15 bd 04 93 c2 be 46 4b 71 bd 04 ea df 3d
       -0.03660271 -0.3800279 -0.058909677 0.10933307
000310 77 53 d8 3d 85 88 be bb 2c ad 1f 3e 04 45 c3 3c
       0.10562795 -0.0058146142 0.15593404 0.02383662
000320 34 d3 85 3d ed e8 37 be ad aa 27 be 7a 66 26 be
       0.065344244 -0.17959948 -0.16373701 -0.16250029
000330 2d c6 bd bd 54 86 34 bd 88 b4 88 be 90 7e ae 3d
       -0.09266315 -0.044073418 -0.26700234 0.08520234
000340 d3 e2 f8 bd 95 40 5d bd 66 ab e4 bd cd a0 45 3d
       -0.12152638 -0.05401667 -0.11165504 0.048249055
000350 7f c8 1e 3e 7b 11 65 bd 0a 4f 24 3a e3 2b 11 3e
       0.1550617 -0.055924874 0.0006267881 0.14176898
000360 a8 f7 05 ba bf fb b5 3d 28 bd 5e be d4 c7 b1 3c
       -0.0005110451 0.088859074 -0.21751845 0.02170173
000370 93 ec 53 3e 10 f7 cd 3d 8c 15 bc bd c8 64 fc bd
       0.20695715 0.10056889 -0.09183797 -0.1232391
000380 2e 69 59 be 7b 2a 31 3d b3 a3 02 bd 76 48 26 3d
       -0.21231529 0.043253403 -0.031894397 0.040596448
000390 2b 9c 29 3d c9 72 a7 3c 9e 01 b2 3d c6 20 20 bb
       0.0414087 0.020440476 0.08691715 -0.0024433597
0003a0 4a 8a f4 37 58 90 17 bd 32 90 47 be 51 41 67 be
       2.9151463e-05 -0.03700289 -0.194886 -0.2258351
0003b0 a6 ed 1b 3e 63 24 da 3b b9 01 da bd f8 da 58 3d
       0.15227374 0.0066571697 -0.1064486 0.0529432
0003c0 8e 96 bc 3d 18 c5 f0 bc 06 0f c8 bc f8 c6 60 3d
       0.092084035 -0.029390857 -0.024421226 0.05487725
0003d0 4b 89 34 3e 73 fb 19 be a1 3f af bb fb 93 16 be
       0.17630498 -0.15037327 -0.0053481613 -0.14704888
0003e0 b1 45 8d 3a 14 70 ab bc cd c8 0d bc 23 26 2e be
       0.0010778216 -0.020927466 -0.008653832 -0.17006736
0003f0 2b 1e 08 3d cc 86 56 3c 35 f7 c4 bb 44 50 60 3d
       0.033231895 0.0130936615 -0.0060109147 0.054764047

en.layers.1.0.bias f4 [64]
000000 57 2a ee bc 55 44 32 3e 5f 4e 0b bd 5b d4 9c bd
       -0.029072924 0.17408879 -0.034010287 -0.07657691
000010 81 21 ae 3d f3 ed 91 3b b6 61 a9 3d c6 87 2e be
       0.08502484 0.0044534146 0.0827059 -0.17043981
000020 08 92 95 bd 2b b9 23 bc 4e 79 7f bd cd c4 26 bc
       -0.07303244 -0.009992878 -0.062371545 -0.010178757
000030 59 10 6d 3d 44 9a 6d bd 58 9d 04 3d fe b5 b0 bd
       0.05787692 -0.058008447 0.032376617 -0.08628462
000040 80 34 70 3d 00 26 d2 3c d8 7a 2e 3d b0 b0 f2 3c
       0.058643818 0.025652885 0.04259762 0.029625267
000050 6a d4 b7 bc a8 d7 cb bd c2 b7 d6 bc 58 74 23 bd
       -0.022440154 -0.099532425 -0.02621067 -0.039905876
000060 c4 f4 cc 3d 08 df 3c be 64 1f 13 be 5d d0 23 be
       0.10007623 -0.18444455 -0.14367443 -0.15997453
000070 40 be 0b 3d 78 11 67 3d c2 4f 91 bd 74 bd d9 bd
       0.034116983 0.056413144 -0.07095291 -0.106318384
000080 a8 61 3b be 15 9a 14 3c a0 06 27 be cb 51 2d 3c
       -0.18298972 0.009069939 -0.16311121 0.010578583
000090 21 d1 fc 3d 4b 47 82 be b8 85 c6 bd 3b 5e 63 3c
       0.12344576 -0.25445017 -0.096934736 0.013877447
0000a0 4c 35 3b be ec 72 c3 3d 1e bd a3 ae 67 75 1c bd
       -0.1828205 0.09543404 -7.445976e-11 -0.0381979
0000b0 07 17 e8 3d 4e 4d a0 bc 79 16 ec bc d3 93 e1 bd
       0.11332517 -0.019568112 -0.02881931 -0.11014523
0000c0 58 b5 38 be ca 1f 52 bc 6b dd 57 3d 95 03 20 be
       -0.18037927 -0.012824962 0.052701395 -0.15626366
0000d0 99 89 6e bc a4 b8 10 3e 23 2a 0e be 66 97 82 be
       -0.014559173 0.14132935 -0.13883261 -0.25506133
0000e0 3d 54 73 bd 1d 47 f7 bc 1e cf a8 3d 1c c2 f1 bd
       -0.059406508 -0.030185277 0.082426295 -0.118046016
0000f0 88 cc 1d be 3e 7d 52 be 1d 4a a3 3d 5a d8 41 bd
       -0.15410054 -0.20555589 0.0797312 -0.04732547

en.layers.2.0.weight f4 [8, 64]
000000 47 71 e0 bd 9a 46 37 3c b2 c5 89 bc 31 94 9c bc
       -0.10959106 0.011186266 -0.016817901 -0.019113632
000010 a4 1c 2e 3d 81 4e 7c bc 6f 5c ad 3d 45 82 51 3d
       0.042507783 -0.015399576 0.08464896 0.051149625
000020 44 6e 54 b9 c4 0a fc 3b f3 91 f5 bd 58 0d c6 3d
       -0.00020258973 0.007691713 -0.11990728 0.09670514
000030 c6 c6 27 bd 61 c6 83 bc 84 d3 eb bd a2 23 9e ad
       -0.04096105 -0.016085805 -0.11514953 -1.7978345e-11
000040 57 20 ff 3a 2a 74 94 3c 73 e5 69 3d f2 76 4c ad
       0.0019464594 0.018121798 0.057103585 -1.1622469e-11
000050 5d 11 23 bd fb 8d 16 bd 66 2d 60 bd 6e c4 b4 39
       -0.03981148 -0.036756497 -0.054730795 0.00034478627
000060 c6 cc 2c bd 60 5f 0d 3d ad a9 8d 3d c2 4c bc bb
       -0.042187475 0.034514785 0.06917129 -0.005746455
000070 5b 1f 34 2e 01 cd 20 3d 28 3e 4a 3d 4d a0 fc bc
       4.095511e-11 0.039258007 0.049375683 -0.030838156
000080 60 e6 05 af cd 4e 35 bd 31 29 f8 ad 0e 00 45 af
       -1.2178125e-10 -0.044264603 -2.8212628e-11 -1.7917065e-10
000090 8b 9c a8 bd 98 4e 17 af 24 0f 17 2e 93 f1 d5 bd
       -0.08232983 -1.3761292e-10 3.4346873e-11 -0.10446467
0000a0 eb 16 ff 3a f4 20 05 be 61 77 98 ae 40 d7 e3 bd
       0.0019461786 -0.13000852 -6.933366e-11 -0.1112504
0000b0 88 e2 69 bd eb 83 bb 3d 21 87 00 bd da 3f d4 ac
       -0.057100803 0.09156021 -0.03137887 -6.0324913e-12
0000c0 69 c2 ed 2d 60 ce 86 ac 96 15 a6 bd b4 9f ad bc
       2.7030116e-11 -3.8314213e-12 -0.08109586 -0.021194316
0000d0 b4 2f 83 bd 41 74 f2 ae 42 80 38 2e b7 95 c0 3c
       -0.06405583 -1.1025537e-10 4.1950672e-11 0.02350889
0000e0 ef 48 34 af f5 04 75 bd 2e c0 18 af 38 a8 4e 3d
       -1.6396816e-10 -0.05981918 -1.3892595e-10 0.050453395
0000f0 63 3b ab bd 0c 51 b1 ae 26 61 e7 3d 7a cf a9 bd
       -0.083609365 -8.063425e-11 0.112978265 -0.08291526
000100 ab 1f 0b 3d 76 77 83 3d da 58 8d bd ba dd 8b 3d
       0.033965748 0.0641927 -0.06901713 0.068294
000110 43 32 a3 bd e3 a1 bd 3b 41 a4 21 3d 58 dc 23 3e
       -0.07968571 0.0057871207 0.039463285 0.16002023
000120 75 d1 f7 3c 7f 44 f0 3d c0 7f 16 bd d0 47 b7 bc
       0.030251244 0.117318146 -0.036742926 -0.02237311
000130 c7 f4 8e bd 5c 0a c9 3c 1c 49 56 3d e8 54 06 bc
       -0.06980281 0.024541073 0.052315816 -0.008198954
000140 8c af 0d bd 72 9f 77 bd 13 57 0b 3d 5e d7 34 bd
       -0.034591243 -0.060454793 0.034018587 -0.044150703
000150 b7 36 86 3c 36 b8 2b bd 21 ce e3 3c e7 b8 ac 3d
       0.016383512 -0.041923724 0.02780825 0.08433705
000160 ec 0e 7b 3c 4f 1b 91 3d d5 9e 72 bc e1 70 ca 3c
       0.015323382 0.07085287 -0.014808376 0.024712028
000170 e1 a6 49 3d 8b 91 29 bc f4 c7 0a bd 4a a9 3b 3c
       0.049231414 -0.010349642 -0.033882096 0.011453936
000180 0e b2 08 3d 45 19 43 bd 4e b4 cd bd 93 8c d4 bd
       0.03337293 -0.04763152 -0.10044156 -0.10378375
000190 ea 62 5f 3d 13 24 c5 3b fe 3a bf 3c 85 47 08 bd
       0.05453769 0.0060162633 0.02334356 -0.03327133
0001a0 ce 15 3d bd 77 bf 92 bd 47 a5 e2 2d a2 47 5c 3c
       -0.046163373 -0.07165425 2.5766623e-11 0.013444813
0001b0 a5 87 5a 3d f3 2b 95 bc 66 2c 48 bd a6 76 2c bb
       0.053352017 -0.018209433 -0.048870467 -0.0026315837
0001c0 36 4f 4a bd 9e b7 d2 3c 03 e9 45 3d 42 a2 54 3c
       -0.049391948 0.025722321 0.04831792 0.012978138
0001d0 74 34 3d bd 4f 23 f6 ba c8 6c 30 bc 02 50 0f 3d
       -0.0461926 -0.0018778833 -0.010768123 0.03498841
0001e0 53 d9 f0 bc dd 7c 39 39 c0 ad 9e bd ca ec 4a bd
       -0.029400503 0.0001768949 -0.07747984 -0.049542226
0001f0 dd be ef bd 68 43 8f 3d 04 c3 70 3d 1f bc f9 3c
       -0.11706326 0.069952786 0.05877973 0.030485211
000200 cd 1f 6c 3d 97 9a a1 bd 93 c1 bb 3c ef 69 8b bd
       0.057647515 -0.07890814 0.022919452 -0.068073146
000210 53 aa 5f 39 c4 db 35 bd 7c 89 6c bd fb d2 bb bc
       0.00021330388 -0.044399038 -0.057748303 -0.022927752
000220 8a d5 d1 bc 17 e6 aa 3b e7 ab 9b bc 6d 37 49 3d
       -0.025614519 0.005215417 -0.019002868 0.049125124
000230 5e c3 b7 3c 25 22 5b bc fd 4e 87 bc 1f 1e 9b bd
       0.022432026 -0.01337484 -0.016517157 -0.075741045
000240 36 32 7d bd 13 10 50 bd 4e 4f 08 3d 58 8c 5a 3c
       -0.061815463 -0.05079658 0.033278756 0.013339125
000250 9f 71 b6 bd 4f 7b 86 bc 1f cc b2 bc de 94 ae 3d
       -0.0890839 -0.01641622 -0.021825848 0.08524488
000260 56 c4 d1 bc a7 cc 56 bd f4 28 be 39 51 51 19 3d
       -0.025606316 -0.052441265 0.00036270136 0.037431065
000270 24 79 8c 3d 94 45 13 bd 8f 72 00 3c a2 66 60 3d
       0.06859043 -0.035955027 0.007839813 0.05478538
000280 84 9f 48 bd 5e 8e 93 3d ce a7 f9 3b 85 6c 94 3d
       -0.04898025 0.07204889 0.007618881 0.07247261
000290 01 ad 0d bc 0e fc 7c 3c 7c a2 81 3c 82 be fc bc
       -0.008647204 0.015440954 0.015824549 -0.03085256
0002a0 91 09 3e bd c5 a7 60 3c 3f a3 d2 ad 50 64 1b 3b
       -0.046395842 0.013711874 -2.3946732e-11 0.0023710914
0002b0 dc c5 58 bc 42 bb 9f 3b 58 ca c3 3b 11 c8 7b b9
       -0.013230767 0.004874618 0.005975049 -0.00024011756
0002c0 41 f1 3b 3d d8 01 26 bc 09 0d 66 bd c5 62 7a bd
       0.045884375 -0.0101322755 -0.056164775 -0.06112935
0002d0 f7 5e f0 3c 64 ab 39 bc 66 96 45 3d 27 1d b8 3c
       0.029342158 -0.011332367 0.048239134 0.022474838
0002e0 56 5f 8d bd 99 74 80 3c 62 a0 94 3d 4b cb bd 3c
       -0.069029495 0.015680598 0.07257153 0.023168227
0002f0 d5 38 5b 3d 9a ee ae bd c5 e7 2c bc 6b 9b 24 3d
       0.053520996 -0.085416034 -0.010553305 0.04018728
000300 00 14 87 3d 10 5f 8e bc 54 da 4e bd 0b da 95 bc
       0.065956116 -0.017379314 -0.050501183 -0.018292448
000310 7e 79 71 bd ff 06 43 3c 1d 8a 05 3d 8d 33 7a bb
       -0.058953755 0.0119035235 0.03260242 -0.00381777
000320 0a dc 8e 3d cc 78 f4 bc 29 c4 29 bd 46 d2 13 bc
       0.06975563 -0.029842757 -0.04144684 -0.009022301
000330 43 37 3e 3e 7c 85 dc bc 96 f2 51 bd ea 08 35 bc
       0.18575768 -0.026919119 -0.05125674 -0.011049489
000340 f8 22 c1 bb 04 80 ca 3c 6d 82 89 3b 8b a5 4d bd
       -0.005894061 0.024719246 0.004196456 -0.050206702
000350 13 ba 42 3c 90 5e a3 3d cf 86 5e 3d fa a0 c3 bd
       0.011885184 0.07977021 0.054327782 -0.09552188
000360 a8 60 a7 bc ec cf e1 bd bb 6d 2b 3d a7 ad 29 be
       -0.020431831 -0.11025986 0.041852694 -0.1657015
000370 82 8a 05 3e 9b 76 cb 3b b9 5f 2b 3d 47 32 d9 b7
       0.13041118 0.0062092072 0.041839335 -2.5891828e-05
000380 3b 0a 1e 3c 1b 67 78 bc f2 34 24 bd d8 78 53 bd
       0.009645994 -0.015161301 -0.040089555 -0.051628917
000390 a4 82 d0 3d 1a 15 f3 3c 09 d1 c8 3c b3 a6 67 bd
       0.10181168 0.029673148 0.024513738 -0.05655546
0003a0 ec 29 d9 3b 6f aa a4 bc 75 88 20 2e ba ae 41 bd
       0.006627312 -0.0201008 3.6500986e-11 -0.047285773
0003b0 5e e4 6e bc 52 59 c8 bc 50 a1 15 3d 1c 97 c6 ad
       -0.014580814 -0.024456654 0.036530793 -2.25771e-11
0003c0 a3 a9 be bd f1 43 27 bb 80 9f 33 3d 1f b3 57 3d
       -0.093096994 -0.0025522674 0.043853283 0.052661058
0003d0 39 ae 7c 3d 7c d1 08 bd 7b 11 cf bd 64 b8 3e 3c
       0.06168959 -0.033402905 -0.10110756 0.011640642
0003e0 cc 5f 82 3d eb bc af 3d 3e 5e 5f 3d d0 b2 74 bc
       0.06365928 0.08580955 0.054533236 -0.01493521
0003f0 70 b3 96 bd a1 ac 0d bd ad 53 e8 bc 84 09 1d 3d
       -0.07358444 -0.03458846 -0.028360212 0.038339153

en.layers.2.0.bias f4 [8]
000000 e9 93 b6 bd a6 8b 50 bd ce 33 21 3c 8f a0 8c bb
       -0.089149304 -0.05091443 0.009839011 -0.004291601
000010 71 a2 2c bd 2e 5f f0 bc f2 9a e3 bb 08 3e 89 3d
       -0.042147104 -0.02934226 -0.006945961 0.06701285

de.layers.0.1.weight f4 [128, 11]
000000 7c a7 05 3e 9c 0e 78 3e a7 92 cc bd 18 f8 4d 3e
       0.13052171 0.24224323 -0.09988909 0.20114172
000010 f4 91 ca 3d 09 4e e1 be 3d c3 a9 bd 1f 5c 82 3d
       0.098911196 -0.4400485 -0.08289192 0.06365227
000020 9d 54 de bd cd c9 06 3e 02 d5 00 bf f9 c2 d4 bd
       -0.108559825 0.13162918 -0.50325024 -0.103887506
000030 d9 a9 2b be be 37 a0 3d 08 f5 9b 3e c5 b0 7b 3e
       -0.1676401 0.07823132 0.30460382 0.24579151
000040 de 41 ef 3e 2c d1 62 3e ea 4e 21 3e 2e e9 59 be
       0.4672994 0.22150105 0.1575276 -0.21280357
000050 94 b0 4a 3e 0b f2 22 be c8 a5 99 3c ab 13 37 3e
       0.19793922 -0.15912645 0.018755808 0.17878596
000060 b4 91 fe 3d 27 e2 2d 3f 8d 3b 0f 3d ca a6 42 3e
       0.124301344 0.67923206 0.0349689 0.19008937
000070 84 06 9d bc 36 d7 42 3d 12 ae 54 be 17 f6 c9 be
       -0.019168146 0.047568522 -0.20769528 -0.39445564
000080 d3 d8 0b bf 4c 9f 9c 3e c7 fc df bd 0a e0 8c 3e
       -0.5462772 0.30590284 -0.10936885 0.27514678
000090 48 ec b6 be c6 d5 e2 bd 2b 33 fd bd 3e 99 18 3f
       -0.35727143 -0.1107593 -0.12363275 0.5960883
0000a0 33 19 ac 3d 93 bd af be 41 44 11 bd 2c 3f 1b 3e
       0.08403244 -0.3432432 -0.035465483 0.15160817
0000b0 4b ea 7f 3e f8 ff 1e 3c 8d 45 5c be ab a3 5e 3c
       0.2499172 0.009704582 -0.21510907 0.013588826
0000c0 99 fe e0 3e c5 92 28 3d 9e 81 70 be e8 fa af 3d
       0.43944243 0.041155595 -0.23486945 0.085927784
0000d0 17 95 64 3e ad 9c b5 3e 72 9d 9b bd 19 64 15 bf
       0.22322498 0.35471097 -0.0759839 -0.5835586
0000e0 5d 98 3e 3e 56 a1 b9 bc 99 d7 a5 be 7f df 12 bf
       0.1861281 -0.022659939 -0.3239105 -0.5737228
0000f0 73 a3 a8 bd e1 3a cf bd 90 4d 10 bf d7 9c 6d 3e
       -0.082343005 -0.10118652 -0.5636835 0.23204361
000100 9c 11 8d be d3 ed 02 bf 6c 85 cf bd 5e a3 76 3e
       -0.27552497 -0.5114414 -0.1013287 0.24085757
000110 71 a7 4e 3d ed c6 54 3e 5d 83 2b 3e db 73 d2 be
       0.050452653 0.20779009 0.1674933 -0.41104016
000120 14 7f c0 be 64 a1 6e be 58 5c ce be a4 f1 27 3e
       -0.37596953 -0.23303753 -0.40304828 0.16400772
000130 e7 bd 40 3e ce 45 bf bd 51 da 82 3e 08 01 74 3d
       0.18822442 -0.09339486 0.25557187 0.059571296
000140 d1 ed b2 bd 32 67 4f 3d 9e 14 46 bf db 11 21 3e
       -0.08736766 0.050635524 -0.7737521 0.15729468
000150 0c 2e b2 3e 03 40 5a 3e 5f 7b 1d 3d 74 7b 65 3d
       0.34800756 0.21313481 0.038447734 0.056025937
000160 ae 93 b9 3d 80 33 bc 3c 62 d7 42 3d 7a 45 69 3e
       0.09061371 0.022973776 0.047568686 0.2278041
000170 e4 94 ca bd df a8 3a be 23 b3 4e bd 03 32 dc be
       -0.0989168 -0.18228482 -0.050463807 -0.43006906
000180 96 a2 74 bf e0 d2 59 be 8c 01 0d bf f2 f3 e0 be
       -0.95560586 -0.21271849 -0.55080485 -0.43936116
000190 ec f0 50 3c 0a f8 aa 3b 99 8b d6 3e 3c 29 b9 be
       0.012752753 0.005217557 0.4190338 -0.36164272
0001a0 c9 b1 ce 3e 37 3a 72 3d 38 c1 35 bd af 12 03 3f
       0.40370014 0.05913755 -0.04437372 0.51200384
0001b0 16 b0 1c be 4b 8a a4 be 17 f4 4f be 54 b9 86 be
       -0.15301546 -0.3213676 -0.20307957 -0.2631327
0001c0 a3 9b d1 bd 52 a2 2f be 38 06 e9 be 2a 37 2d 3e
       -0.102347635 -0.17151764 -0.45512557 0.16915575
0001d0 ee 3c 14 be 43 26 c6 be 9f 6f 73 3d 8d 49 5a be
       -0.14476368 -0.38701066 0.059432622 -0.2131712
0001e0 ab b7 7b be a6 1a a8 3d 36 6e f6 3c f1 50 48 3d
       -0.24581783 0.08208208 0.03008185 0.048905317
0001f0 9a 15 ba 3e 13 a8 62 be f9 34 8e 3e b5 e6 0f 3f
       0.36344606 -0.22134428 0.2777479 0.56211406
000200 56 4b c5 be 5e 87 91 be 2b 4a be 3e b6 a1 c2 bd
       -0.3853404 -0.2842359 0.3716596 -0.095035
000210 f5 4f af bd 22 2d da bd dd 42 b4 3d 86 94 e2 be
       -0.085601725 -0.1065314 0.08801816 -0.4425394
000220 11 74 8c 3b 19 bb be be 64 5c 88 3e 35 62 2b 3e
       0.004286297 -0.3725212 0.26632988 0.16736682
000230 f7 63 07 be 06 a5 9e 3e 37 40 0d 3e 25 ee bf 3e
       -0.13221727 0.30985278 0.13794027 0.37486377
000240 11 5e 65 be 0e a7 7e bd 7f 4f c8 3c 31 c5 9d 3e
       -0.22399165 -0.062171035 0.02445197 0.30814508
000250 e9 d4 19 3e a0 df e0 be a5 ac 19 be f4 34 fd 3d
       0.15022625 -0.43920612 -0.15007265 0.12363616
000260 3b a2 1e be 31 28 36 3a 45 1a 62 3d 33 05 96 bd
       -0.15491574 0.0006948738 0.055200834 -0.073252104
000270 88 dc 9d 3e 10 12 f4 be 92 37 a5 3e c7 7c 06 be
       0.30832314 -0.4767003 0.3226896 -0.13133536
000280 92 93 07 3e d1 a7 92 3e 79 c7 bd be 43 01 58 3d
       0.13239887 0.2864366 -0.37066248 0.05273558
000290 87 11 5a 3e 22 42 72 3b 99 2b b6 3b 3b 90 6c 3d
       0.21295749 0.0036965688 0.0055593965 0.057754736
0002a0 62 05 8d 3e 88 5d ab 3e 43 77 73 3e 7b 9d de 3e
       0.2754317 0.33469796 0.23775963 0.43479523
0002b0 10 ff e1 be 1c 53 95 3e c4 a0 01 3e 2b d1 3b be
       -0.4413991 0.2916497 0.12658983 -0.1834151
0002c0 9b 0e a4 3b 2d d4 cf 3d 04 16 94 be 6a d4 9b be
       0.005006624 0.10147891 -0.28923047 -0.30435497
0002d0 ef e0 81 be 32 73 5f 3e f7 27 8c 3d d8 80 14 3c
       -0.25366923 0.21821287 0.0684356 0.009063922
0002e0 90 d4 0d 3f b9 23 4a 3e 42 a5 69 3e 9b ef 53 bc
       0.5540247 0.1974019 0.22816947 -0.012935544
0002f0 7c b3 69 bd d7 49 82 be 7b b7 a3 bd 79 3d c4 3d
       -0.057055935 -0.2544696 -0.079939805 0.095820375
000300 54 59 8f 3e de 08 91 be 9e 08 f6 3e fb 6c af 3e
       0.2799784 -0.28327078 0.4805345 0.34262833
000310 c6 5d 9d 3e 43 7a d6 3e 31 ae 11 3c d5 80 57 bd
       0.30735606 0.41890153 0.008891628 -0.0526131
000320 98 74 2e 3e 69 2d de be 2f fb 9c be 6f 96 08 3d
       0.17036664 -0.4339402 -0.30660388 0.03334659
000330 25 e3 6e 3e 01 16 e1 3e d4 8a f1 be d8 ae 87 be
       0.23328836 0.439621 -0.4717623 -0.26500583
000340 94 ef 1d 3f 7e 09 81 3e 21 b1 15 3e e8 e1 36 be
       0.6169369 0.25202554 0.1461835 -0.17859614
000350 1f 01 b3 3e 62 48 43 3d 7d f4 af be c9 b8 3a be
       0.34961793 0.04767645 -0.34366217 -0.18234552
000360 95 b6 8f 3d cd 1a 1f be db de 0f 3e c0 d6 7e be
       0.07017247 -0.15537567 0.14049856 -0.24886608
000370 4c a4 90 bd 6d 51 c2 bd 37 38 4e 3c 2a 17 8f be
       -0.07062587 -0.09488187 0.012586645 -0.2794736
000380 79 ce 72 3e 49 d4 87 be 15 bb 05 be 31 e6 0b 3e
       0.23711576 -0.26529148 -0.13059647 0.1366203
000390 c8 b4 b1 3e 31 8b 12 3e 0b 5d 0c 3e 7e c9 95 bc
       0.34708238 0.1431091 0.13707368 -0.018284556
0003a0 7c 02 c8 3c d2 33 84 3e 52 85 15 3f 8d 7a 58 be
       0.024415247 0.25820786 0.58406556 -0.211405
0003b0 e5 40 83 3e ac 46 97 3e 5c d0 a0 3e fb c2 1b bf
       0.25635448 0.29546106 0.31408966 -0.6084439
0003c0 98 2c be 3d a8 70 57 3e c9 61 6f 3b ff ce 3f 3e
       0.09285849 0.21039069 0.003652679 0.18731306
0003d0 9b ad 9c 3d f9 31 a0 3e 6c c4 ab be 00 c6 37 3e
       0.076503 0.31288126 -0.33548295 0.17946625
0003e0 15 8c c2 be 6a d2 6f 3e df c2 a8 3d 9d 7e e8 be
       -0.379975 0.2342011 0.08240294 -0.45409098
0003f0 32 16 14 bf 22 10 99 3d a2 9a 5a 3e 6e 4d 6a be
       -0.5784637 0.0747378 0.2134805 -0.228811

de.layers.0.1.bias f4 [128]
000000 c2 81 47 3e 72 aa 18 3e 74 fc fa bc c6 58 ba 3c
       0.19483092 0.1490877 -0.030637957 0.022747409
000010 6d 90 78 bd ff db 8d be 88 c9 c1 3d e4 28 82 be
       -0.06068461 -0.27706906 0.09462267 -0.25421822
000020 dc 96 a6 3d c7 6a 80 bb 07 ce b3 3d e7 10 83 3d
       0.08134243 -0.003918979 0.08779531 0.06399708
000030 a3 99 f5 3d b9 78 5a bd b1 20 46 3e 8d 66 15 be
       0.119921945 -0.053337786 0.19348408 -0.14589901
000040 b4 e2 22 bd 0c 17 96 3b 2a 12 8a be db 15 60 3e
       -0.039766982 0.004580384 -0.26966983 0.21883337
000050 47 3f 28 3e 49 34 db bc c1 d2 45 be d1 94 43 3d
       0.16430388 -0.02675833 -0.19318677 0.047749344
000060 8e 62 da bd fe 24 43 3e 20 fc 13 be 0d 63 18 3d
       -0.10663329 0.1905708 -0.14451647 0.037203837
000070 5b 4f fc bd d5 69 9f 3d a1 9e 55 3c f7 54 df bd
       -0.12319823 0.07783858 0.013038308 -0.10904878
000080 9d a1 92 3e 64 12 c4 3d 7c 14 4a 3e 37 e1 9d bc
       0.28638926 0.0957382 0.19734377 -0.01927243
000090 53 75 94 bd 51 98 83 3d 61 36 d9 3b a5 4d 67 3e
       -0.0724894 0.064255364 0.006628797 0.22588213
0000a0 d5 a3 d8 bd eb bb 63 be 52 a5 26 3e 13 07 83 3d
       -0.105781235 -0.22239654 0.16274002 0.06397834
0000b0 2f b7 77 3d 17 17 c0 3d 60 d2 0c bd 1e 93 4f 3e
       0.060477432 0.09379404 -0.034380317 0.20270965
0000c0 57 28 73 3e a2 6d d2 3c c9 a2 11 3d a4 41 61 3e
       0.23745857 0.025687043 0.035555635 0.21997696
0000d0 43 01 96 3d 6b ff 94 3d 3b 77 9e 3e b6 aa 1d 3d
       0.073244594 0.072752796 0.3095034 0.03849288
0000e0 78 a8 2e 3e d5 ee d6 3d 97 f5 df bb 0a 29 83 3e
       0.17056453 0.10494772 -0.0068346965 0.25617248
0000f0 a2 6a a6 3d fc cf 89 bd e5 ed 07 3e ba c9 8f 3b
       0.08125807 -0.06729123 0.13274343 0.0043880614
000100 55 b1 ca 3d 47 bc fb bd 86 ea b4 bd 14 0a c3 bd
       0.09897105 -0.122917704 -0.08833794 -0.095234066
000110 d4 3c 17 3e 24 8a 82 bd 5d dc 11 b1 9f 86 66 3e
       0.14769298 -0.063740045 -2.122554e-09 0.22512291
000120 a5 21 6a bd a9 57 28 3c b6 13 f4 bd 9a d9 55 be
       -0.057160992 0.010274806 -0.11917822 -0.2088379
000130 b2 67 25 be 5b 0c a6 be 52 64 04 3e dd f9 b8 3d
       -0.16152838 -0.324313 0.12928894 0.09032033
000140 21 98 88 3d 77 f8 cf bd 47 66 5a 3e 3b af 25 3e
       0.06669641 -0.10154813 0.21328078 0.16180126
000150 74 74 bc 3e 60 b4 59 be ba f9 0d 3e b4 5b e1 3c
       0.36807597 -0.21260214 0.13864794 0.027509548
000160 ed d8 a9 bd ed c7 d6 3d f4 b6 ce bd 76 8a 11 3e
       -0.082933284 0.104873516 -0.10093489 0.14212975
000170 ca a5 99 3e ba 3f b1 3d 18 12 4f 3e 52 30 72 3e
       0.300093 0.08654733 0.20221746 0.23651245
000180 3d d1 89 bd 67 db 5b 3e 42 ca 56 3d 1a 7e 86 bd
       -0.06729362 0.21470414 0.05243898 -0.06567021
000190 26 9d 3b bd 42 2f 55 3e 96 13 8f 3b f8 3d 1a 3e
       -0.045804165 0.20818809 0.0043663485 0.15062702
0001a0 32 b5 ea 3c 8c 1f 45 3e 24 c9 c7 bd b4 88 82 3e
       0.028650854 0.19250315 -0.097551614 0.2549492
0001b0 aa 8d d2 bb 56 0f 1c bc 87 ad 64 3d d9 95 0e 3d
       -0.006425579 -0.009525141 0.05582955 0.034810875
0001c0 46 ac d5 3c 11 5f f2 3d 17 8c 00 be 45 b2 bc 3c
       0.026083123 0.11834539 -0.1255344 0.023034224
0001d0 78 5f 98 3c 4d 58 f6 3d 19 57 41 3e d2 25 aa 3d
       0.01860021 0.12028561 0.18880881 0.08307995
0001e0 e4 f7 e6 3d 01 cd 09 3e e8 2c 05 b0 c0 1c 14 3e
       0.1127775 0.13457109 -4.8448934e-10 0.14464092
0001f0 9d 0d 81 3d ef 66 5c bd d5 81 e7 3d 2c 05 0c 3e
       0.06301425 -0.053809103 0.1130406 0.13673848

de.layers.1.1.weight f4 [64, 128]
000000 2a 36 e4 bd ea 03 c7 3d 16 49 d0 3d 6c 3f 9d 3d
       -0.111431435 0.097175434 0.1017019 0.076781124
000010 ae c1 3a 3d b5 56 2e 3a 7b 68 8f 3b 45 2d df ba
       0.045594864 0.00066504936 0.0043764687 -0.0017027041
000020 d8 fa 74 bd 3d 3c b3 bc 91 fe 36 3c 24 ec 34 3e
       -0.059809536 -0.02187931 0.011169092 0.17668205
000030 98 ec 65 bc 94 b4 16 be bc 9f 70 bc 4a cc 5c 3e
       -0.014033459 -0.14717323 -0.014686521 0.21562305
000040 5e d5 07 be f7 0c 1d bd 66 8e 1b 3d 9d be 9d bd
       -0.13264987 -0.038342442 0.0379776 -0.07702372
000050 30 d7 2a 3c 7b 33 ed 3d f2 d0 b3 bd 39 f9 04 b9
       0.010427281 0.11582085 -0.087800875 -0.00012681344
000060 f6 19 d1 3d 27 81 13 3d 99 d9 ca 3d 6f 3a ed 3d
       0.1021003 0.03601184 0.09904785 0.11583411
000070 f8 4f 92 3d 91 67 0a 3e 7b ab 40 3e 57 5b f7 ba
       0.07144159 0.1351607 0.18815415 -0.0018871826
000080 b1 06 2f 3d c1 d9 8a 3d 5a 43 a3 3d 73 6e b7 bc
       0.04273099 0.067798145 0.07971831 -0.022391533
000090 c1 e4 a4 bc f0 00 63 bd 38 34 6b 3e 52 88 1b 3e
       -0.02012861 -0.055420816 0.22969139 0.15188721
0000a0 05 18 0f bf 5c 22 a1 bb 85 1d 07 bd a3 3b f5 bc
       -0.55896026 -0.004917426 -0.032987136 -0.029935664
0000b0 87 c0 bb 3c 58 89 90 3d e6 4c e1 bc b0 7f 65 3d
       0.022918953 0.07057446 -0.027502488 0.056029975
0000c0 8f 68 f9 3d e3 bc e0 3d b2 ae 0e bd 0d 76 0d 3e
       0.12178146 0.10973527 -0.03483457 0.13814564
0000d0 c8 46 66 3d b7 45 c3 bc 99 76 50 3d cb f1 e0 3d
       0.056219846 -0.023836954 0.050894354 0.10983618
0000e0 ad 4d c5 bb 25 65 bf bd aa eb 3b 3d 12 a5 b4 3d
       -0.0060212226 -0.09345464 0.045879044 0.08820547
0000f0 50 ed d8 3d 42 cc 5a 3d 97 d0 b7 bd f7 6e 1c 3e
       0.10592139 0.05341745 -0.08975332 0.15276705
000100 91 e5 b6 3d 70 a5 78 3d ee 1b 5b bd 48 1a ca 3e
       0.08930505 0.06070465 -0.053493433 0.39473176
000110 7c 9f 01 3d e1 3e 57 bc 19 9d 89 ac 15 bd 6f 3d
       0.031646237 -0.01313755 -3.9112155e-12 0.058529932
000120 19 24 9f 3d 49 ba 4a bc c4 ce 2a 3e ea 2b 43 bc
       0.07770557 -0.012373515 0.16680437 -0.011912325
000130 95 f3 35 3d f4 13 e1 3d b4 48 ec 3d 8a 90 26 bc
       0.04442175 0.10990134 0.115373045 -0.010166297
000140 84 cd 93 3d f1 db 06 bd bc e2 5e 3d d9 b5 b7 3d
       0.07216933 -0.032924596 0.05441545 0.089702316
000150 f9 02 00 3e ad 08 e9 3b 49 6e 6a 3c eb 8c fc bd
       0.12501134 0.00711163 0.014308521 -0.123315655
000160 a3 ee 8b 3d 9b 23 5f bd bc af 06 3a 3e eb 0d 3e
       0.06832626 -0.054477315 0.0005137881 0.13859269
000170 26 3e 43 bd 46 a2 23 bd 5f f0 21 bd 23 c2 e4 3d
       -0.04766669 -0.039949678 -0.039535876 0.11169841
000180 a3 b8 46 bd 68 57 9c 3c d1 37 94 3e 37 89 25 3d
       -0.048515927 0.019084647 0.28948835 0.04041406
000190 a5 d5 ca 3e 0d 5b 2c 3c 8b 2a b1 3d 8c 30 a0 3d
       0.39616123 0.010519755 0.086506926 0.078217596
0001a0 a4 03 91 3d 84 36 26 3d e5 bb 11 3e dd bd d8 3d
       0.070807725 0.040579334 0.14231832 0.105830885
0001b0 5f 56 2d bd 6f 28 7c 3d 2c 09 9d 3d f9 25 e7 3e
       -0.042318698 0.061561998 0.07667765 0.45146158
0001c0 cc b4 96 be bf 3e 01 3e 6d d6 e3 3d 3b 06 3b 3e
       -0.29434812 0.12621592 0.11124883 0.18264095
0001d0 b9 fe 1f 3d 3d 5c ea bc de bb bf 3d b7 ea 40 bd
       0.03906128 -0.028608436 0.09362005 -0.04709884
0001e0 e3 bf a4 3d 83 01 be bd c9 b7 19 ae 7c d5 b6 bb
       0.08044412 -0.09277632 -3.4951406e-11 -0.0055796485
0001f0 8c 5b cc bd 9a c1 59 3e b6 bd af 3d cd 77 df 3d
       -0.09978399 0.2126526 0.08581106 0.10911522
000200 3e ab 0e 3e 69 bc be bd f0 b3 9b bc d7 18 a8 3c
       0.13932511 -0.0931328 -0.0190067 0.020519657
000210 6f 5e 1b 3e f8 b3 5b 3c b4 49 40 3d ad ca 0f 3e
       0.15172742 0.013409607 0.04694529 0.14042158
000220 c2 a5 40 3e 9d c7 24 3c 28 06 01 3e fa e3 1a 3d
       0.18813232 0.010057357 0.12600005 0.03781507
000230 da 4d 77 3c 7e b6 50 3e bc 66 02 3c 79 b5 39 be
       0.015094245 0.20382115 0.007959064 -0.18135633
000240 ec 7a 08 3e 96 af 88 3e 3c 1f c8 3c 5f 92 52 3d
       0.13328141 0.2669646 0.024428956 0.05140912
000250 93 a1 1a bd b5 c2 b7 bd 30 e5 f4 3d ff 48 0d 3e
       -0.037751745 -0.08972684 0.119577765 0.13797377
000260 8c 14 c7 bd 70 2f f3 3d 64 bf be bd ae 17 b3 bc
       -0.09720716 0.11874282 -0.093138486 -0.021861877
000270 b7 2c 3f bd bf 83 9e bc f2 fb 07 be d3 d6 20 3e
       -0.046673503 -0.01934993 -0.13279703 0.15706949
000280 62 c2 09 bc bb 31 0c 3d 89 b6 a9 3d 12 95 61 bd
       -0.008408161 0.034227114 0.08286769 -0.055073805
000290 fe bb 10 3d 62 4b 9e 3c 7a 64 ea bd 57 cd 1f 3d
       0.035335533 0.019323055 -0.11444946 0.039014187
0002a0 1e 42 17 3f 3d 78 3f 3e 30 7a 27 3d 28 97 f4 3d
       0.5908526 0.18698211 0.04088801 0.11942893
0002b0 94 28 d6 3d 46 1c 6f 3d 07 3e 80 3d e7 2e ec 3d
       0.104569584 0.058376573 0.06261831 0.115323834
0002c0 ff 77 f9 3c b8 a5 f5 bd 5f 1d bb 3d 28 b3 ae 3c
       0.030452726 -0.11994499 0.091364615 0.021325663
0002d0 90 6f 0f 3d 72 90 6c 3d 82 47 88 3c b8 de 99 3c
       0.035018504 0.05775494 0.01663566 0.018782958
0002e0 8d ad 81 3b ab 05 f8 3d dc f5 0e bd 62 98 49 bd
       0.0039574564 0.12110456 -0.03490244 -0.04921759
0002f0 18 c2 77 3d f0 13 b8 3d 3a de 19 3e 0b 7d 45 bd
       0.060487837 0.08988178 0.15026179 -0.048214953
000300 06 36 e4 3d a4 47 11 3d 33 20 a4 bd 58 5f 1e be
       0.11143117 0.035468712 -0.08013954 -0.15466058
000310 58 15 3d 3e e9 b0 a3 3d c4 db a6 2e b4 1a 1a 3d
       0.18465173 0.07992727 7.587844e-11 0.037623122
000320 b3 6c a4 3d 34 71 16 3e 01 e2 25 bd fd f6 96 3c
       0.08028545 0.14691621 -0.040498737 0.01842832
000330 f4 08 15 3d 6e 1e 87 bd 76 3e 05 bc d0 47 8c 3d
       0.03638549 -0.06597601 -0.008132568 0.06849635
000340 06 08 6b 3c 9f 84 17 bd 56 cf 43 3d a7 9e 24 bd
       0.014345175 -0.03699171 0.047805153 -0.040190365
000350 9d 9a 70 3c 27 6c ba 3d 03 ba ec bc af e8 28 3e
       0.0146853 0.0910266 -0.028897291 0.16495012
000360 de 13 f7 bc 50 58 8d bd 30 a4 55 b9 6a d8 c6 bd
       -0.03016084 -0.0690161 -0.00020374428 -0.097092465
000370 6f 21 9f 3d 0c 0d 06 3d fd b7 76 3c 11 45 18 bd
       0.07770049 0.032727286 0.015058515 -0.03717524
000380 01 11 86 3d a1 92 8c 3d 61 5e 3c be d7 f4 98 bd
       0.06546212 0.06863905 -0.18395378 -0.074685745
000390 84 6e 96 be eb 38 9e bc 03 44 69 3d b6 ed cb 3d
       -0.29381192 -0.01931425 0.056949627 0.09957449
0003a0 64 0d 48 bd 14 15 67 3c 94 df e0 3c 60 90 93 3c
       -0.048840895 0.0141041465 0.02745036 0.01801318
0003b0 c5 05 41 3d 13 2b 87 3d 1f 13 2a bb 15 80 b4 be
       0.047124643 0.06600013 -0.0025951338 -0.3525397
0003c0 2a 0a 7a 3e 98 2f dd 3c 92 bc 99 3d 20 68 ca bd
       0.2441794 0.027000234 0.0750667 -0.098831415
0003d0 68 5e 2c bd 89 35 2c bd 05 f5 8b 3b 4e e5 d0 3d
       -0.04208222 -0.042043243 0.004271152 0.101999864
0003e0 b2 39 9d bc 13 1b 5d 3e e4 87 a7 2c 5c f2 41 3d
       -0.01919255 0.21592359 4.7615124e-12 0.047350273
0003f0 8b 79 5a bc 97 10 7e be 67 c9 17 3d 63 cf 26 bd
       -0.013334642 -0.24811016 0.037057307 -0.040725123

de.layers.1.1.bias f4 [64]
000000 4a 7e c0 3d ca 3e 10 bd 2e 28 76 3d 67 27 28 bd
       0.09399088 -0.03521613 0.060096912 -0.041053202
000010 62 7e 2f 3c 51 58 99 bd 94 4e da 3d e8 76 b1 3c
       0.010711284 -0.07487548 0.10659519 0.021663144
000020 f7 d5 4e bd 51 04 5d 3d 75 dd 89 3d 11 35 8b 3d
       -0.05049702 0.053959195 0.06731693 0.06797231
000030 5e 55 c6 bd cc 73 ca 3c b3 a3 b6 3c 5b 7e d3 bb
       -0.09684251 0.02471342 0.022294855 -0.0064542717
000040 36 b3 f7 3b c2 42 46 bc 44 00 b2 bd 57 d9 02 bd
       0.0075592054 -0.012100877 -0.08691457 -0.031945553
000050 68 c8 db 3c 32 74 51 bc 1a a5 bd bb 12 f4 31 3d
       0.02682896 -0.012784051 -0.005787504 0.043445654
000060 4b 5f 03 3d 17 22 88 3d b1 e1 96 bd 3c 78 4f bd
       0.0320733 0.06647127 -0.07367266 -0.050651774
000070 3c c9 99 bd 90 79 85 ae 91 b2 d3 3b 76 3b 19 3e
       -0.075090855 -6.0697336e-11 0.0064604958 0.14964089
000080 b6 b6 10 bd b8 5f 0d ae 6b 66 68 bd 09 11 94 3c
       -0.035330497 -3.2144704e-11 -0.0567383 0.01807453
000090 9f ad a4 3d b8 f6 05 bd af 17 f6 3b 4d e4 7c bb
       0.08040928 -0.032705992 0.0075101475 -0.0038588226
0000a0 75 fb 38 bd ea 2a b7 bc d8 a0 b3 3c cb ec 8c 3d
       -0.045161683 -0.02235933 0.021927282 0.06881102
0000b0 2c 44 8c bb de 8b c0 3d 71 a7 e5 bc 29 ad d6 3b
       -0.0042805877 0.094016775 -0.028033944 0.006551404
0000c0 d5 4f 8b bc 1c 96 9e 3d 09 3e 69 3d 40 88 5f bd
       -0.01700584 0.07743475 0.056943927 -0.054573298
0000d0 57 84 be bc 7b dd e1 bc 27 65 36 3b fe a0 b0 bd
       -0.023256464 -0.02757143 0.0027831288 -0.08624457
0000e0 eb 3c 04 bd 4b a3 d1 bc 9f c3 15 bd 29 08 0d 3d
       -0.03228466 -0.02559056 -0.036563512 0.03443161
0000f0 64 d6 17 bc 15 2d 8a 3c e2 68 17 bc 6e 38 6a bd
       -0.009267423 0.0168672 -0.009241315 -0.05718272

de.layers.2.1.weight f4 [32, 64]
000000 6e 38 8a 3d ae d0 2b bd a9 6d 50 3e 83 eb 1d 3d
       0.06749044 -0.04194706 0.20354332 0.03855468
000010 78 25 01 3e b8 50 6c 3d af c1 67 bd 14 48 dd 3d
       0.1261195 0.057694167 -0.056581195 0.108047634
000020 02 98 00 3d a0 ed a3 2b 26 12 2d 3e 22 4b 76 bd
       0.031394966 1.1647801e-12 0.16901454 -0.060130246
000030 c6 25 3d ae d5 b4 81 3d e9 05 89 bc 2a ae 1e bd
       -4.3007174e-11 0.06333319 -0.016726451 -0.038740315
000040 59 18 61 3b bd 02 9a bd d1 ea 8a bd b7 dc 16 ac
       0.0034346788 -0.075200535 -0.06783069 -2.1438803e-12
000050 07 80 50 3e 8e 07 4b bb 92 cb f9 bd 70 66 01 3d
       0.20361339 -0.0030979845 -0.12197031 0.031591833
000060 8e 96 2e 3e 21 3b 81 3d dc e2 26 3d 43 e9 c9 bb
       0.1704962 0.06310106 0.040743694 -0.00616184
000070 28 fd 9f bc c0 ab 46 2f d7 03 63 bd bc 73 22 3e
       -0.019529894 1.8069013e-10 -0.055423584 0.15864462
000080 5d 56 b8 bd 76 a1 95 ad 2c 05 05 3e 66 98 80 bd
       -0.090008475 -1.7011042e-11 0.12990254 -0.06279068
000090 5d 61 2f 3d 6b 22 bf 3c f0 e7 91 bd 88 44 d7 bd
       0.042817462 0.023331841 -0.07124317 -0.10511118
0000a0 2e d9 d8 3b f8 6e 3d 3c d8 f8 63 be 41 a8 d8 3d
       0.0066176867 0.011562102 -0.22262895 0.10578967
0000b0 62 4c e8 bd d4 d3 e4 3d bf d1 c0 3d f1 4b 3d 3e
       -0.11342694 0.111732155 0.09415006 0.18486
0000c0 b6 79 cf bd 2f ba 2f be e8 c5 c0 bd c3 2f a1 bd
       -0.101306364 -0.17160867 -0.094127476 -0.07870438
0000d0 2a c9 12 be d5 5b fc 3c 92 3b f1 bd 99 bb ad 3d
       -0.1433455 0.030805508 -0.1177894 0.08483047
0000e0 81 92 d7 3d b2 6e b1 bc b0 da c8 bd c7 8d 16 3e
       0.1052599 -0.021659229 -0.09807336 0.14702521
0000f0 6d 33 a3 3c ba 8a 01 3c 99 2f 3a 3e 43 87 d0 3c
       0.019921983 0.00790661 0.1818222 0.025455123
000100 37 d6 b4 bd 9f 13 11 3e e8 63 fa 3c 31 33 95 3d
       -0.08829921 0.14167641 0.030565217 0.072851546
000110 26 48 a4 bd de 7d 4e bd 60 30 d9 3d f3 79 a5 3b
       -0.08021574 -0.050413005 0.1060493 0.005049938
000120 9f d4 5f ab 07 68 41 ad 55 e8 4c 3b a8 78 63 3d
       -7.9520586e-13 -1.09938786e-11 0.003126641 0.05553499
000130 d3 d9 ac bc 5f 4d 37 be 38 a6 c4 3c 12 06 52 bd
       -0.02109996 -0.17900608 0.02400504 -0.05127532
000140 1b 52 f5 3d 20 1b f0 bc fd cf e5 3b db 7e 14 af
       0.11978551 -0.02930981 0.0070133195 -1.350559e-10
000150 0f 28 2f be 2b f7 ad ac 3f d9 0b 3d 6a 14 d2 3d
       -0.17105125 -4.944397e-12 0.03414273 0.102578
000160 be 0f 4d 3b 5e 06 86 bd 8b ee 4d bd 71 45 60 bc
       0.00312899 -0.06544183 -0.05027632 -0.013688431
000170 3d 60 b5 3c c4 55 29 2f e3 0c 74 ad 24 49 ef 3d
       0.022140617 1.540093e-10 -1.3872656e-11 0.11683872
000180 80 7a d6 3d 93 f6 a0 2e 00 77 2d 3e 07 6b f4 bd
       0.10472584 7.319758e-11 0.16939926 -0.11934476
000190 70 19 cf 3c 7e 93 87 be a7 ba 2d 3e f0 a4 0e 3d
       0.025280684 -0.26479715 0.16965733 0.034825265
0001a0 68 10 16 3d c5 88 b9 3d 9b 31 cb 3c 06 c2 86 3d
       0.03663674 0.0905929 0.024803927 0.06579976
0001b0 ed 42 15 3e 2a da b7 3c 78 36 a7 3c 5f 67 1c 3d
       0.14576311 0.022442896 0.020411715 0.03818452
0001c0 ce 91 a3 3d e6 a1 12 bd da ba 89 2d e9 d5 52 3e
       0.079867944 -0.03579893 1.5658076e-11 0.20589413
0001d0 65 17 ef 3d 74 e5 c0 ba 05 1d 63 bb d9 68 58 3c
       0.11674384 -0.001471682 -0.0034654748 0.013208591
0001e0 ac 99 c9 3d 38 2f a1 3d be 78 bc bd 79 13 05 3c
       0.09843764 0.078703344 -0.09202717 0.008122318
0001f0 e8 6d 85 bd fd 0e 09 3e 65 e0 5b 3b 53 57 5b 3c
       -0.065151036 0.13384624 0.0033550498 0.013387519
000200 e8 64 44 ad 77 cf 4c bd 46 ed 62 bd 45 3a c6 3d
       -1.1163716e-11 -0.05000254 -0.055402063 0.09679083
000210 47 11 5a bc cd 5a a9 bd f6 e8 e2 bd 16 49 6a ad
       -0.013309783 -0.08269272 -0.1107959 -1.3317588e-11
000220 fc af 3d af f7 88 96 ad 32 c9 97 bd ef 7c b6 3c
       -1.7251972e-10 -1.711385e-11 -0.07411422 0.02227637
000230 ec 27 ed ac b8 26 62 ae bf 9a 93 bd 47 3c b0 ae
       -6.7403774e-12 -5.142084e-11 -0.0720725 -8.014261e-11
000240 b6 88 d5 3d 96 1c d7 3d 0f 50 0e af ee 30 06 2f
       0.10426466 0.10503499 -1.2943267e-10 1.2204612e-10
000250 f6 36 84 ae dc fd 65 ac 7b f1 c0 ae 2c 15 0d bd
       -6.012428e-11 -3.2683778e-12 -8.774045e-11 -0.03444402
000260 fb db 55 2e e1 ab 36 3d 7c 2f 16 af c4 ce 13 ae
       4.8625975e-11 0.04459751 -1.365929e-10 -3.3607575e-11
000270 77 5b 37 2f fe 70 b8 2e 08 55 d6 ae 06 01 85 bd
       1.6676248e-10 8.387423e-11 -9.746698e-11 -0.06494336
000280 f7 0b e1 bd 09 dc b6 2d da 66 87 bd 06 5f ca bd
       -0.1098861 2.078872e-11 -0.06611414 -0.098814055
000290 27 6c 7c 2b 67 7d 38 af d3 be 2c ae 36 a0 5d 3d
       8.9678476e-13 -1.6779254e-10 -3.9277758e-11 0.054107867
0002a0 8f cd e9 ab 0e 4a ad bc d3 4e d7 ae d8 ab 59 3d
       -1.66127e-12 -0.021153476 -9.79107e-11 0.0531424
0002b0 58 e5 63 3d 04 c2 06 2e 56 54 f0 bd 1a 29 08 bd
       0.05563864 3.0640393e-11 -0.11734836 -0.033242323
0002c0 a6 3a d5 3d d0 4a a0 ad d9 f9 af ae aa 81 1d af
       0.10411577 -1.8223117e-11 -8.0024605e-11 -1.4325133e-10
0002d0 1b fa c5 bd b3 74 40 3d b5 56 97 3c 8f 50 1e 2e
       -0.096668445 0.046986293 0.018473962 3.599659e-11
0002e0 2e a7 25 ae 4f 42 55 3d 0f 38 81 bc 79 c4 df 3b
       -3.7665142e-11 0.05206519 -0.015773801 0.0068288413
0002f0 ba d8 82 ae c6 bc 83 bc 4a e6 5b 2d 51 26 f7 2d
       -5.950214e-11 -0.016081225 1.2499843e-11 2.8097665e-11
000300 5e 2d e3 3d 8e 64 33 be 5c c6 d4 3d d2 c4 46 be
       0.110926375 -0.17518827 0.103893965 -0.19411018
000310 c3 48 44 bd 47 08 76 be 0a 10 e8 bc 3f e7 1f 3e
       -0.047920953 -0.24026595 -0.02832796 0.15615557
000320 1d 78 41 bd e9 60 8a 3d dd 1d ab bc 44 b3 a9 3d
       -0.04723369 0.067567654 -0.020888263 0.08286145
000330 84 06 55 bd 47 a3 9a 3d 29 24 50 3d 99 2b 1c 3e
       -0.052008167 0.07550674 0.050815735 0.15251006
000340 dd 78 59 be 82 98 38 be 17 96 cf bd 5d 49 af 2e
       -0.21237512 -0.18026927 -0.10136049 7.9711106e-11
000350 61 10 e4 3d 1a 52 f9 bc ee 75 84 3e 1e b1 52 3d
       0.111359365 -0.030434657 0.25871223 0.051438443
000360 60 c2 0c 3d 3c 3c f5 bd 46 35 c1 bc 55 9f a4 3d
       0.034365058 -0.119743794 -0.023584973 0.08038203
000370 29 f9 0b 3e 7e c3 23 2f b0 76 cb bc 66 f3 48 bd
       0.13669266 1.4894216e-10 -0.024836868 -0.049060248
000380 65 3f 7c bd c8 f3 ee 2c 85 b2 f6 3c 1e 57 21 3d
       -0.061583895 6.791432e-12 0.030114422 0.039389722
000390 e1 8e e4 bc 47 91 2e 3e 00 89 a4 3e 26 21 9d ba
       -0.027900161 0.17047606 0.32135773 -0.0011988028
0003a0 57 fe 7b 3c 9d d2 12 be 96 8c 04 3e 88 1a 2d be
       0.015380464 -0.14338155 0.12944254 -0.16904652
0003b0 cd dc 23 3d 9c 9b 07 3e ce 53 bb bd 2c 5c 20 bd
       0.040005494 0.13242954 -0.09146844 -0.039150402
0003c0 2b 7b a3 bd 8d 16 a1 3c 4d fb d0 bd 02 ce aa 3d
       -0.07982477 0.019664073 -0.10204182 0.08340074
0003d0 80 f2 4c bd b1 bb 40 3e 2a 53 db bc aa dc 5a 3e
       -0.050035954 0.18821599 -0.026773054 0.21373239
0003e0 1a 9f 94 3d 33 17 ae bd 34 59 46 bd 27 db 0c bd
       0.07256909 -0.08500519 -0.048424914 -0.034388687
0003f0 2d de a4 3c 2f f4 b8 3c ab 9d 26 3d 9f c7 b3 bc
       0.020125473 0.022577373 0.040677708 -0.021945773

de.layers.2.1.bias f4 [32]
000000 69 8e 84 3c ad 98 d0 bd 0e cc b7 bd 1f 97 3d 3d
       0.016181188 -0.101853706 -0.08974467 0.0462867
000010 cf c9 7f bc f3 3d ae 3d 8d 46 19 bc 9f 9b af bd
       -0.01561208 0.085079096 -0.0093551995 -0.08574604
000020 21 ff 2d 3a a7 8c 18 3d bf 03 de 3c 84 0f 85 bd
       0.00066374434 0.03724351 0.027101396 -0.064971
000030 32 ab 00 3e 77 f6 c4 3d 15 f2 63 bd 9b e5 08 3e
       0.12565306 0.09617322 -0.05565079 0.13368838
000040 58 67 e8 ae 20 73 66 bd f5 3c 36 3d df c1 fa 3d
       -1.0568496e-10 -0.056262136 0.044491727 0.12244009
000050 94 bc f0 3d 30 ce e0 bd aa 13 f8 3d 9b 95 69 3b
       0.117547184 -0.10976827 0.121131256 0.003564215
000060 43 3e d3 3d ca f4 17 3d 32 12 1d bd a9 a1 7e bc
       0.1031461 0.037098683 -0.03834743 -0.0155414725
000070 e8 fd 10 bd 89 ce 5b ae f9 57 29 3d 39 9a a5 3d
       -0.035398394 -4.9978275e-11 0.041343663 0.08086056

de.layers.3.1.weight f4 [3, 32]
000000 3b 50 86 3b 21 26 df 3a 7a 5f c7 bd d0 1a 49 be
       0.0040989197 0.0017024913 -0.097350076 -0.19639134
000010 af 00 72 3d f0 ac 4f be ba 7a 01 be 73 3f 50 3e
       0.059082683 -0.20280814 -0.12644473 0.20336704
000020 4d 0d 11 3e 05 6d c7 bd d5 d1 7f 3e fc 70 d9 3d
       0.1416523 -0.09737591 0.24982388 0.10617253
000030 92 3f df bd d2 4d 4f 3e 0e 01 85 be 99 d3 5c 3d
       -0.10900797 0.2024453 -0.25977367 0.053912733
000040 99 05 ae 2d 02 47 7d be f6 ba a8 bd b0 ea b2 bd
       1.9783996e-11 -0.24734119 -0.08238785 -0.08736169
000050 fc a9 4f 3d 77 03 3a bc c9 12 71 bd 86 37 9a 3d
       0.05069922 -0.011353365 -0.058855806 0.075301215
000060 49 bc 1f 3e b7 6a bd 3d be f4 7d 3d 5a e5 3e bd
       0.15599169 0.0924887 0.062000982 -0.046605445
000070 de 7d ec bd 8a 07 b8 2e f8 c9 a2 bd 62 bd 4f 3e
       -0.11547445 8.3686905e-11 -0.07948679 0.20287088
000080 fa 14 4a be 64 15 09 3e 26 af e6 bc 00 ab 2e 3b
       -0.19734564 0.13387066 -0.02815969 0.0026652217
000090 a7 0a 59 bd 4b 6f 8c bd b5 6f 4c 3e 6c 65 bc 3d
       -0.052988674 -0.06857165 0.19964488 0.09199032
0000a0 cb d2 98 3d 4a 20 1d be 2a 18 b6 3d da b6 e5 3d
       0.074620806 -0.15344349 0.08891328 0.11216517
0000b0 08 56 12 be e3 e1 a7 3d 01 d4 17 bd eb 27 9f bd
       -0.14290631 0.08197381 -0.037067417 -0.077712856
0000c0 ff d6 bd 2e cc 23 20 3e ea e6 65 3e aa 37 64 be
       8.632916e-11 0.15638655 0.22451368 -0.22286859
0000d0 02 e6 02 be 3e 35 9c 3d b1 df 23 be 07 82 2b 3e
       -0.12783054 0.07627343 -0.160033 0.1674882
0000e0 03 50 9c 3d 96 e0 83 be f3 9b 09 be 66 9b 72 be
       0.076324485 -0.25757283 -0.13438396 -0.23692092
0000f0 ca 98 1d 3e 63 e6 01 30 af 5a 59 3e 70 7f ad bd
       0.15390316 4.7257326e-10 0.21226 -0.084715724
000100 76 22 b7 3e 97 1f a5 3c 8f eb 4b bd 94 e5 b4 3c
       0.3576848 0.020156665 -0.049785193 0.022082128
000110 cd 7d 87 be ee 46 4e be 6a b0 0c 3e 84 74 07 3e
       -0.26463166 -0.20144245 0.13739172 0.13228041
000120 57 9d b0 bd 63 22 08 bd 15 87 01 bd 80 1a f8 3d
       -0.0862376 -0.03323592 -0.031622965 0.121144295
000130 c4 d2 5b 3e 55 a2 14 3e 97 e2 70 3e 74 11 bb 3e
       0.2146712 0.1451505 0.23523937 0.36536753
000140 84 3a 4b af 4a ca e0 bc de 04 67 be 61 4c 36 bd
       -1.8483531e-10 -0.027440209 -0.2256045 -0.044506434
000150 8a bc 57 be 05 4b cc 3b a0 ae 30 be 60 fb c4 3e
       -0.21068016 0.006234529 -0.17254114 0.38473034
000160 04 18 9d be 89 21 c8 bc 7a 17 1d bf 2a 06 23 be
       -0.30682385 -0.024430053 -0.6136395 -0.1592032
000170 78 4f c5 3d 86 38 bf af a4 a8 e5 be a0 5a 49 be
       0.09634298 -3.478286e-10 -0.44855225 -0.19663477

de.layers.3.1.bias f4 [3]
000000 55 f4 b4 3a 8b 3d cb 3d 9d ff 20 be
       0.0013805727 0.09923848 -0.15722509
