simulation/weight/unmasked_Adam_lr_0.001_hyper_[1.0, 3.0, 0.3, 1e-07, 1e-07, 1e-07, 0.0, 10]_batch_16-07-14-06-27.pt (torch, 65447 bytes, 15 tensors)

en.layers.0.0.weight f4 [32, 3]
0	0x3c98d41e	0.018655833
1	0x3c2bb091	0.010479108
2	0xbbc0ead8	-0.0058873706
3	0x3c82ebe5	0.015981624
4	0x3dbae622	0.091259256
5	0xbd8f28da	-0.06990214
6	0x3ede4eef	0.43419597
7	0xbe33c978	-0.17557323
8	0x3e12e80b	0.1434633
9	0xbec6bbe5	-0.38815227
10	0xbf023b7b	-0.5087201
11	0xbe61859e	-0.22023627
12	0xbcf97b4e	-0.030454304
13	0xbe7a6cfd	-0.24455638
14	0x3e329ad7	0.17441879
15	0x3eb87fa9	0.36034897
16	0x3e8b0c3c	0.27157772
17	0x3d928aeb	0.07155403
18	0x3d1f09dd	0.038827766
19	0x3d9f08e4	0.077653676
20	0xbad0dd63	-0.0015935119
21	0xbef20ee3	-0.47276983
22	0x3e3f6921	0.18692447
23	0xbe204f00	-0.15655136
24	0x3d273f88	0.040832072
25	0xbd9fda69	-0.0780533
26	0xbbe9f3a2	-0.007139639
27	0x3dadda7f	0.084889404
28	0xbf097766	-0.5369781
29	0x3d227aa9	0.03966776
30	0x3e100e3d	0.14067931
31	0xbc26ca86	-0.010180121
32	0x3c325c6b	0.010886292
33	0xbf080e33	-0.53146666
34	0x3c84124d	0.016122008
35	0x3c945663	0.018107599
36	0x3e179f8d	0.14806958
37	0xbdb7bb6e	-0.08971296
38	0x3e7c2e8e	0.24627134
39	0x3ea58992	0.3233152
40	0x3eda5343	0.4264165
41	0x3e3a6c2c	0.18205327
42	0x3de4e35d	0.111761786
43	0xbca27a26	-0.019833636
44	0xbccf32c7	-0.025292767
45	0x3cd57093	0.026054656
46	0xbb548d46	-0.0032432838
47	0xbc17eefe	-0.009273289
48	0xbe4a0cdd	-0.1973147
49	0xbec9cd21	-0.39414313
50	0xbde0a210	-0.10968411
51	0xbd9e44e6	-0.07727985
52	0xbe6c3e38	-0.2307061
53	0x3d342c9f	0.043987866
54	0xbdc5c1e0	-0.09656119
55	0x3d47174c	0.048606202
56	0xbe29baaf	-0.1657512
57	0xbec793f7	-0.38980076
58	0x3e5c2202	0.21497348
59	0x3e10f4e3	0.14155917
60	0x3f05edf2	0.523162
61	0xbe94cb0c	-0.29061162
62	0xbe433c61	-0.19066001
63	0xbe696c80	-0.22795296
64	0xbe2df1f0	-0.16986823
65	0xbd489d6e	-0.04897826
66	0x3d8de97c	0.06929299
67	0xba5a4b25	-0.00083272374
68	0xbbc749a5	-0.006081777
69	0x3d0a82c5	0.033816118
70	0x3c8c0928	0.01709421
71	0xbd2faeeb	-0.042891424
72	0x3d2bea18	0.041971296
73	0x3e9c8063	0.305667
74	0xbe5f25f5	-0.21791823
75	0x3ea39e70	0.31956816
76	0x3c198254	0.009369452
77	0x3b63f4ee	0.003478344
78	0xbd0230af	-0.03178471
79	0x3c4c9e42	0.0124889035
80	0xbd497ef0	-0.049193323
81	0x3d2ec281	0.042665962
82	0x3d21c5c5	0.03949525
83	0xbd1ebe81	-0.038755897
84	0x3df766fd	0.1208019
85	0x3e21456f	0.15749143
86	0x3d036926	0.0320827
87	0x3e53aea0	0.20672083
88	0x3ecba4b5	0.397741
89	0x3ded684b	0.11592158
90	0xbf08b525	-0.53401405
91	0x3e9a91e8	0.30189443
92	0x3e44e499	0.19227828
93	0xbb13b9cc	-0.0022541163
94	0xbd2dae08	-0.042402297
95	0x3dc737fc	0.09727475

en.layers.0.0.bias f4 [32]
0	0xbdd89ed2	-0.105771676
1	0xbef2857a	-0.4736746
2	0x3eab9541	0.3351231
3	0xbd939fe5	-0.07208232
4	0xbb47d1dc	-0.0030490076
5	0xbeda9692	-0.42693
6	0xbe8b7f29	-0.27245453
7	0xbec0298c	-0.37531698
8	0xbe347dfe	-0.17626187
9	0x3e59e112	0.21277264
10	0xbeca3f6d	-0.39501515
11	0xbeacfc98	-0.33786464
12	0xbf15f387	-0.5857472
13	0x3d82742f	0.063698165
14	0xbeca0856	-0.39459485
15	0xbe325de1	-0.17418624
16	0xbec82b74	-0.39095652
17	0x3e66e9e3	0.22550158
18	0x3ebe77c3	0.37200746
19	0x3c6552fc	0.013996836
20	0xbc962f84	-0.018333204
21	0x3e8ecf5a	0.27892572
22	0x3da84507	0.08216291
23	0xbdfeafa3	-0.12435844
24	0x3b15c8a7	0.0022855194
25	0x3ca84d29	0.020544605
26	0xbebea983	-0.37238702
27	0x3de87dfb	0.11352154
28	0xbf2dcd96	-0.67891824
29	0x3eca9caf	0.39572665
30	0x3c9de119	0.019272374
31	0xbef13338	-0.4710939

en.layers.1.0.weight f4 [64, 32]
0	0x01968608	5.5293623e-38
1	0x81976b3a	-5.56225e-38
2	0x869f74d2	-5.9980805e-35
3	0x84ae2882	-4.0944404e-36
4	0x851c5e03	-7.352352e-36
5	0x836b7078	-6.91894e-37
6	0x020503e0	9.772409e-38
7	0x05065b4c	6.317418e-36
8	0x8455200b	-2.5052743e-36
9	0x86836140	-4.941962e-35
10	0x0193a908	5.424182e-38
11	0x049cb265	3.6839253e-36
12	0x820b7da0	-1.024816e-37
13	0x84a43d38	-3.8612435e-36
14	0x01962fd8	5.516995e-38
15	0x81922faa	-5.3700324e-38
16	0x04d372ee	4.9711408e-36
17	0x85c6dd6f	-1.8701172e-35
18	0x85a9b740	-1.5959999e-35
19	0x03912d2b	8.532704e-37
20	0x86bb717a	-7.050832e-35
21	0x851ba7fd	-7.3189195e-36
22	0x85d7dd58	-2.0299812e-35
23	0x84a5e91b	-3.9005387e-36
24	0x848a981b	-3.258333e-36
25	0x861d01a6	-2.952963e-35
26	0x01313890	3.2550347e-38
27	0x856f3e82	-1.1249207e-35
28	0x019213ce	5.366035e-38
29	0x852d2233	-8.140702e-36
30	0x03e943e8	1.37101e-36
31	0x0191a9b0	5.350808e-38
32	0x2386909f	1.4589559e-17
33	0x98976af4	-3.914058e-24
34	0xbc71244b	-0.014718126
35	0xbc317ffb	-0.010833736
36	0x3c6dde30	0.014518306
37	0x38e583f0	0.00010944146
38	0x38daa585	0.000104258805
39	0xb335d6a4	-4.233756e-08
40	0xba97ede6	-0.0011591285
41	0xbc2ec9bd	-0.010668215
42	0xb9186717	-0.00014534254
43	0x386420e7	5.439008e-05
44	0xb9b65dcf	-0.00034783638
45	0xbc086a12	-0.00832607
46	0xa47dc146	-5.502434e-17
47	0x27509c12	2.8950405e-15
48	0x39528864	0.0002007797
49	0x3b9ce42a	0.0047879415
50	0x3bc0d03e	0.0058841994
51	0xba55fee7	-0.00081632886
52	0x3b7d1b1c	0.0038620895
53	0x3b17a138	0.0023136865
54	0x3a18636f	0.00058131566
55	0x38379001	4.3764714e-05
56	0xbb6e1ec1	-0.0036334249
57	0x3b4072cd	0.0029365302
58	0x1f917313	6.160026e-20
59	0xbb3f1e5e	-0.0029162387
60	0x20fa61f7	4.2416475e-19
61	0xb980177a	-0.00024431554
62	0xbb03a6f9	-0.0020088537
63	0x397f25c4	0.00024332764
64	0x2a606ba0	1.9932537e-13
65	0x12457f8e	6.2319463e-28
66	0x3ce4cd23	0.027929848
67	0xbd505a9d	-0.050867666
68	0xbda9237f	-0.082587235
69	0xbcd33495	-0.025781909
70	0x3ada6dcd	0.0016664803
71	0xb9db6e5e	-0.00041853165
72	0xbcecd86b	-0.02891179
73	0x3d71d19c	0.05903779
74	0xbd9b1f12	-0.075742856
75	0x3cfc5386	0.030801546
76	0xbd7453f1	-0.059650365
77	0xbd73560c	-0.059408233
78	0xb70e917e	-8.497735e-06
79	0x33eef458	1.11271845e-07
80	0xbd8714de	-0.06595777
81	0xbe80462e	-0.25053543
82	0xbe0553fe	-0.13020322
83	0x3bae9330	0.0053276047
84	0x3cfd1d38	0.030897722
85	0x3c9f70f5	0.019463042
86	0xbd96d707	-0.07365232
87	0x3d4ce7fc	0.050025925
88	0xbc697893	-0.014249939
89	0xbe7a7bbc	-0.24461263
90	0x9451e1d1	-1.0596338e-26
91	0xbcbcaf08	-0.02303268
92	0x3046bd8d	7.230135e-10
93	0x3d686a11	0.056741778
94	0xbdc3c35e	-0.09558748
95	0xbd854a0d	-0.06508265
96	0x1b54876f	1.757999e-22
97	0x901fba41	-3.1500706e-29
98	0xbc6cbe0f	-0.01444961
99	0xbb00fc07	-0.001968147
100	0x2bc67f0a	1.4104007e-12
101	0x93636cf4	-2.8705146e-27
102	0xa30b0f7a	-7.538482e-18
103	0xa0fe8f0c	-4.3123934e-19
104	0xb8bac19e	-8.905235e-05
105	0xbc7ecf10	-0.015552297
106	0xaa389e74	-1.6397457e-13
107	0xa89a9387	-1.7161414e-14
108	0x9c69e066	-7.738326e-22
109	0xa5231a5b	-1.4146926e-16
110	0x1f5abbf7	4.6318776e-20
111	0x98732ece	-3.1430644e-24
112	0xb5be8d2a	-1.4197187e-06
113	0xba24a1e5	-0.00062802277
114	0xbbc28b98	-0.005937051
115	0xa9381c76	-4.0880893e-14
116	0xbc37ff9d	-0.011230377
117	0xb807a53e	-3.2340402e-05
118	0xbb073440	-0.0020630509
119	0xba1e31e9	-0.0006034659
120	0xbac2a47e	-0.0014850048
121	0xbc217014	-0.009853382
122	0x13a09cd1	4.054431e-27
123	0xbad5955c	-0.0016295123
124	0x01975936	5.559665e-38
125	0x270630a8	1.8622612e-15
126	0x2c4bab43	2.8943104e-12
127	0x2485a4cc	5.795873e-17
128	0x0199baf5	5.6471594e-38
129	0x0371112a	7.084324e-37
130	0xbbf5ff8c	-0.00750727
131	0xbc70e23f	-0.014702379
132	0xbab9a066	-0.0014162182
133	0xba7bd629	-0.00096068025
134	0x3881c4b4	6.187838e-05
135	0xb942a466	-0.00018562525
136	0xb880a227	-6.133719e-05
137	0xbc348d39	-0.011019998
138	0xb7fe8a97	-3.0343695e-05
139	0xb9e23908	-0.0004314857
140	0xb731df77	-1.0602052e-05
141	0xbba71b8e	-0.0050997203
142	0x81d07228	-7.657094e-38
143	0x01919243	5.3474463e-38
144	0xbb71a381	-0.0036871138
145	0xbbf02a06	-0.0073292283
146	0xbc06c9d8	-0.008226834
147	0xbaeccbd4	-0.0018066117
148	0xbb2928af	-0.0025811603
149	0xbc1d03c7	-0.00958342
150	0xbb71b4ae	-0.0036881375
151	0xb95f0b77	-0.00021271208
152	0xba8ced05	-0.001075179
153	0xba8043f2	-0.0009785874
154	0x81968761	-5.5295557e-38
155	0xbb0765b4	-0.0020659985
156	0x81976266	-5.5609835e-38
157	0xbc0c2c3d	-0.008555469
158	0xbb5e459c	-0.0033916002
159	0xb18b46fe	-4.0535033e-09
160	0x81cc5050	-7.505301e-38
161	0x81976c29	-5.562384e-38
162	0xbc83af1b	-0.016074708
163	0x3d809952	0.062792435
164	0xbc87bf5d	-0.016570741
165	0x0b6219b3	4.354535e-32
166	0x81934de1	-5.411102e-38
167	0xbced6585	-0.028979072
168	0xbcfe739a	-0.031060982
169	0xbd11143e	-0.035419695
170	0x0199e96c	5.653827e-38
171	0xbc7babf9	-0.015360826
172	0x2564eafa	1.9855461e-16
173	0x1c2dca37	5.7502255e-22
174	0x0197efd0	5.5812754e-38
175	0x9445dd4b	-9.989601e-27
176	0xbd3f10b9	-0.046646807
177	0xbd58fd5d	-0.052976
178	0xbd3597e1	-0.044334296
179	0xbb8bad2b	-0.0042625866
180	0xbd200bed	-0.039073873
181	0xbce9550d	-0.028482938
182	0xbd5382a8	-0.051638275
183	0xb5e422cf	-1.6997454e-06
184	0xbd0a1460	-0.033710837
185	0x87f558f4	-3.6915785e-34
186	0x8193d0a0	-5.4298634e-38
187	0xbcff1fd3	-0.031143105
188	0x81671d0c	-4.244884e-38
189	0xa5868e71	-2.3341817e-16
190	0xbb0c78a9	-0.0021434224
191	0x2dad997b	1.9735982e-11
192	0xb600cc6d	-1.9192478e-06
193	0x3d177440	0.0369761
194	0x3dc6e770	0.09712112
195	0xbd28d9ae	-0.04122322
196	0xbd0b9536	-0.034077846
197	0x3d2e1c64	0.042507544
198	0xbdfe20df	-0.124086134
199	0xbdc74193	-0.09729304
200	0xbd3e32b5	-0.046435077
201	0xbbb5b5fe	-0.005545377
202	0xbdcb1d2b	-0.09917673
203	0xbe98f5b5	-0.2987496
204	0x3bc2bd4f	0.0059429775
205	0x3d58a8da	0.052895404
206	0x3c2cf54e	0.010556532
207	0xbb929eb6	-0.004474486
208	0xbda41145	-0.080111064
209	0x3d816e20	0.06319833
210	0x3d6fbb4e	0.058528237
211	0x3c20b6fd	0.009809253
212	0x3e24353d	0.16035934
213	0xbda7af9f	-0.08187794
214	0x3dc785d2	0.09742321
215	0x3bd116f9	0.0063809124
216	0x3cf68681	0.030093433
217	0xbf0853c4	-0.53252816
218	0x3607befb	2.0227733e-06
219	0xbdb41c7d	-0.08794496
220	0xbbcebf09	-0.0063093943
221	0x3d9beb83	0.0761328
222	0xbe2b7e08	-0.16747296
223	0xbc169bec	-0.009192448
224	0x019822e2	5.5886036e-38
225	0x92c7f210	-1.2618339e-27
226	0xbd1cb30c	-0.03825669
227	0xb40c567d	-1.306998e-07
228	0xbc96942f	-0.018381206
229	0xbcfd4146	-0.030914914
230	0x3b27c585	0.0025599909
231	0xbc78d180	-0.015186667
232	0xa49cfbe3	-6.808093e-17
233	0xbc383322	-0.01124266
234	0xa8a5a3c5	-1.8389704e-14
235	0xbae4b9ea	-0.0017450426
236	0x819546c2	-5.483549e-38
237	0xbd9addf0	-0.075618625
238	0x01898233	5.051268e-38
239	0x8f1ab1bf	-7.627019e-30
240	0xaee1b5f5	-1.02641375e-10
241	0xbca82143	-0.020523673
242	0x3c954977	0.018223507
243	0xbcb51919	-0.022106694
244	0xbc4b6ec5	-0.012416546
245	0xbe06901f	-0.13140915
246	0xbdf27f7d	-0.11840723
247	0xbca69bc2	-0.020337943
248	0xbda4c242	-0.08044864
249	0xbdee5142	-0.116365924
250	0x0c042db7	1.0182667e-31
251	0xbe1e105b	-0.15435927
252	0x01960d18	5.5120086e-38
253	0x3b9dc042	0.0048141787
254	0xbcdd6eac	-0.027030312
255	0x0197282a	5.552627e-38

en.layers.1.0.bias f4 [64]
0	0x869413ea	-5.5700674e-35
1	0xbc9085e2	-0.017641965
2	0xbc81f402	-0.015863422
3	0xbc847e74	-0.016173579
4	0xbcb53e95	-0.022124568
5	0xbdf5abfb	-0.11995693
6	0x3ca343c9	0.019929783
7	0xbc05d996	-0.008169552
8	0xbd0699d7	-0.032861557
9	0x8e2affcc	-2.107728e-30
10	0x8c5f0444	-1.7180579e-31
11	0x3d0c0c95	0.034191687
12	0xbcf7febf	-0.03027284
13	0xabbc9a8e	-1.3401101e-12
14	0xbd25154a	-0.040303506
15	0x9e2377df	-8.653937e-21
16	0xbd421bbd	-0.047389735
17	0xb76044cc	-1.3367458e-05
18	0x9ee0c6e1	-2.3799177e-20
19	0xbda91026	-0.08255033
20	0xba28ee0a	-0.0006444162
21	0xb77724f3	-1.473095e-05
22	0xbd068032	-0.0328371
23	0xbdb17cb3	-0.086663626
24	0xbc11c026	-0.008895909
25	0xb3074b1a	-3.150044e-08
26	0x3cea39f3	0.028592085
27	0xbdfb5374	-0.12271777
28	0x3d550c39	0.05201361
29	0xaf0b9bb9	-1.26973e-10
30	0x90f06eb5	-9.483388e-29
31	0xbb67d092	-0.003537212
32	0xb29e4974	-1.8427023e-08
33	0xa439dd85	-4.0303115e-17
34	0x931607b1	-1.8936454e-27
35	0xbc181501	-0.0092823515
36	0x98914f17	-3.756148e-24
37	0x9b2218a5	-1.3408289e-22
38	0xbd395f1e	-0.045256726
39	0x3c33da97	0.010977409
40	0xbd7b7ca6	-0.06139817
41	0x3d93dc47	0.07219749
42	0xbe5892f8	-0.21149814
43	0xbd4a01c1	-0.04931808
44	0x9c23b709	-5.4168743e-22
45	0xbb200246	-0.0024415418
46	0xbc992543	-0.018694526
47	0x9b1e6a68	-1.3103835e-22
48	0xb97ab617	-0.00023909692
49	0x8ba3dcd9	-6.311761e-32
50	0x939e217b	-3.991782e-27
51	0xbd97f81b	-0.07420369
52	0xadbb7011	-2.1309206e-11
53	0x3c88dfa8	0.01670821
54	0xaf8adbff	-2.525837e-10
55	0xa84985e1	-1.1186772e-14
56	0xa91342a8	-3.2698372e-14
57	0xbd99747e	-0.07492922
58	0xb8941766	-7.061548e-05
59	0xbd702b93	-0.058635306
60	0xbd2b4c68	-0.041820914
61	0x3d819e06	0.06328969
62	0xb951c929	-0.00020006731
63	0xbdbd768a	-0.09251125

en.layers.2.0.weight f4 [8, 64]
0	0x07a6e6e3	2.5112607e-34
1	0xba8a3bbc	-0.0010546367
2	0xbc2afd09	-0.010436305
3	0x2af70344	4.387828e-13
4	0xbc88a9e9	-0.016682582
5	0x27841df0	3.666982e-15
6	0xbba23a56	-0.004950802
7	0xbca9c395	-0.020723144
8	0xbc423883	-0.011854294
9	0x81c55a47	-7.249591e-38
10	0x01cdfd9e	7.566903e-38
11	0xb93d1e1b	-0.0001803566
12	0x3a51f357	0.0008008978
13	0x818c0987	-5.144155e-38
14	0x3be8bf89	0.007102911
15	0x019f79f8	5.858239e-38
16	0x3d2cb5d1	0.04216558
17	0x31551163	3.1005463e-09
18	0x01269705	3.0597736e-38
19	0x3b802a00	0.003911257
20	0x89ea4f2f	-5.6407915e-33
21	0x355ffe7a	8.3444286e-07
22	0x995e269d	-1.1484929e-23
23	0xad0a7375	-7.870028e-12
24	0x2c3b6285	2.6628988e-12
25	0x273aaf72	2.5907794e-15
26	0x3c6984bd	0.014252839
27	0x3ce937fb	0.028469076
28	0x3ca8b26a	0.020592887
29	0x8614fbae	-2.802061e-35
30	0x96c1d486	-3.1314953e-25
31	0xbe869e63	-0.26292714
32	0x8c1e2421	-1.2182749e-31
33	0x2c0e5b13	2.022997e-12
34	0x131448e4	1.8716164e-27
35	0xb0acbca2	-1.256826e-09
36	0x1c69f280	7.7406657e-22
37	0x97d58014	-1.3797134e-24
38	0x3d352426	0.044223927
39	0xbccd62b8	-0.025071487
40	0xaf88ae4c	-2.48621e-10
41	0x3c3a2596	0.0113615
42	0xbd45b96f	-0.048272546
43	0x3bb880e6	0.0056306003
44	0x1cae51d1	1.1535503e-21
45	0x3c4751bf	0.012165486
46	0x3c2281e8	0.009918667
47	0x01979677	5.5684546e-38
48	0xb40117ad	-1.2022674e-07
49	0x87f637a4	-3.7046669e-34
50	0x14d8b56e	2.1881988e-26
51	0xbcb829cf	-0.022480873
52	0x893781b7	-2.2088815e-33
53	0xbc87f367	-0.016595555
54	0x0196b898	5.5366177e-38
55	0xa63bc3b5	-6.514389e-16
56	0x98abd718	-4.4419653e-24
57	0xbbbda73f	-0.0057877596
58	0x143fe79b	9.688712e-27
59	0xb4e7b1d1	-4.315648e-07
60	0x3c108825	0.008821522
61	0xbb074a14	-0.002064352
62	0x8a2b3822	-8.243908e-33
63	0x3c3ef63c	0.011655387
64	0x019733b8	5.554285e-38
65	0xb975236e	-0.0002337822
66	0xbc08d07b	-0.008350487
67	0x30d08ee7	1.5174607e-09
68	0xb3a44bfb	-7.650666e-08
69	0xaa24f175	-1.4649898e-13
70	0x3a86530d	0.001024814
71	0x90a7ed15	-6.623517e-29
72	0x8190798c	-5.3071657e-38
73	0x0192f3e4	5.3981896e-38
74	0x01e965d7	8.5736815e-38
75	0x8e1266f1	-1.8045454e-30
76	0x01bcc8df	6.934853e-38
77	0x1033bf5a	3.5448937e-29
78	0x8196f2d2	-5.544973e-38
79	0x84e9ab52	-5.493537e-36
80	0x1291ba64	9.196735e-28
81	0x8a1939ed	-7.377577e-33
82	0x01904251	5.2992405e-38
83	0xbaae7311	-0.0013309439
84	0x8a2e627a	-8.396317e-33
85	0xb1082253	-1.9810116e-09
86	0x13d35c51	5.335492e-27
87	0xaeda627c	-9.9309866e-11
88	0x078caf76	2.1167985e-34
89	0x2eee652d	1.08409594e-10
90	0x33b84e17	8.582372e-08
91	0xb282ff23	-1.5250015e-08
92	0x2ae90cc9	4.1397986e-13
93	0x01907e8b	5.3078826e-38
94	0x01887875	5.013136e-38
95	0xbcc5ec30	-0.024160475
96	0x917c9676	-1.9925659e-28
97	0x046bb6f9	2.7708134e-36
98	0x0190439a	5.299425e-38
99	0x2c1d4726	2.2350537e-12
100	0x81954190	-5.4828033e-38
101	0x0963080a	2.7327911e-33
102	0xbd141947	-0.03615692
103	0x957665f2	-4.9759725e-26
104	0x9602c7b9	-1.0564338e-25
105	0x3c443c52	0.011977272
106	0xbc75c2b2	-0.015000032
107	0xa7fba8d3	-6.9849534e-15
108	0x9f4409ac	-4.1512615e-20
109	0x1cee9414	1.5787796e-21
110	0x818b37fd	-5.1140875e-38
111	0x0188d1ba	5.025945e-38
112	0xb601d470	-1.9346153e-06
113	0x01971368	5.5496486e-38
114	0x019243d0	5.3729236e-38
115	0x05c55591	1.8557223e-35
116	0x86a0928d	-6.040065e-35
117	0x9ca7ca83	-1.1103481e-21
118	0x028b42ea	2.0462621e-37
119	0x1db8be93	4.8901444e-21
120	0xa28278eb	-3.5364597e-18
121	0xbbaf6323	-0.005352394
122	0x0d86024c	8.258941e-31
123	0xb1879e18	-3.9469903e-09
124	0x0115b56a	2.7497136e-38
125	0xba9b6297	-0.0011854944
126	0x8d862d42	-8.269283e-31
127	0xaf4b5dba	-1.8496041e-10
128	0x8199f642	-5.6556686e-38
129	0x30102950	5.2445603e-10
130	0x33bad45c	8.699928e-08
131	0x91a21189	-2.55699e-28
132	0x83a01e82	-9.410959e-37
133	0x0c86eff2	2.079038e-31
134	0x361eb59e	2.364955e-06
135	0x90847780	-5.224894e-29
136	0x8193d478	-5.430415e-38
137	0x8196420a	-5.519606e-38
138	0x0196c80d	5.5388356e-38
139	0x0a18993b	7.347353e-33
140	0x81e7574b	-8.498126e-38
141	0x81b56362	-6.6631507e-38
142	0x01983d62	5.592406e-38
143	0x0189cc70	5.0619205e-38
144	0x8b62f0c9	-4.3707163e-32
145	0x08ff479d	1.536409e-33
146	0x01ba2bc6	6.838842e-38
147	0xabcad4eb	-1.441206e-12
148	0x844deb6e	-2.4205738e-36
149	0x0173dcbd	4.4790423e-38
150	0x078f4228	2.1555132e-34
151	0x8196077d	-5.5112043e-38
152	0x081e3412	4.7607604e-34
153	0x02452342	1.4483393e-37
154	0x9f07bda9	-2.8744245e-20
155	0x992bd5fc	-8.8837066e-24
156	0xa2c13e30	-5.23786e-18
157	0x8191d728	-5.357332e-38
158	0x111cb662	1.2362431e-28
159	0xaeccd878	-9.3152985e-11
160	0x01975153	5.5585334e-38
161	0x0148e831	3.6900788e-38
162	0x01c5c65e	7.2651014e-38
163	0x15954c2e	6.030081e-26
164	0x81905e68	-5.303271e-38
165	0x8196a5da	-5.5339283e-38
166	0xb71063bc	-8.60629e-06
167	0x98d6955d	-5.546852e-24
168	0x92b44ad8	-1.1378047e-27
169	0x22af5ff4	4.753544e-18
170	0x01966711	5.524919e-38
171	0x816590f2	-4.216465e-38
172	0x119ef78a	2.5080562e-28
173	0x019474c9	5.453419e-38
174	0x81966212	-5.524202e-38
175	0x0187d0b3	4.9890637e-38
176	0x01924be8	5.374085e-38
177	0x81961348	-5.5128965e-38
178	0x019950a8	5.631906e-38
179	0x01968382	5.529e-38
180	0x0016e154	2.101213e-39
181	0x8a9408dc	-1.4255214e-32
182	0x0187c240	4.9869903e-38
183	0x1e134182	7.795662e-21
184	0x0b999d07	5.9169725e-32
185	0xa0a3a754	-2.7724003e-19
186	0x01993fed	5.629505e-38
187	0xa98de107	-6.300694e-14
188	0x01963a6c	5.518513e-38
189	0xada4efc3	-1.8751117e-11
190	0x01e59781	8.433871e-38
191	0x9d43be63	-2.5906463e-21
192	0x07c436a3	2.9522915e-34
193	0x3baf0269	0.0053408635
194	0xbca0a0f4	-0.019607998
195	0x36d3c964	6.311735e-06
196	0xbb5bcd13	-0.0033538982
197	0x3b972625	0.0046127015
198	0x3a550fc9	0.00081276573
199	0xbc389b16	-0.011267444
200	0x3bb99e74	0.005664641
201	0x8e5ffd4d	-2.7608832e-30
202	0x01913cf7	5.335207e-38
203	0xbcb69653	-0.022288477
204	0xbc467d6c	-0.012114864
205	0x215e0cbb	7.5233374e-19
206	0xbc9936e2	-0.018702928
207	0x83d8a55f	-1.2733306e-36
208	0xbc082f9a	-0.00831213
209	0x362378e1	2.4359254e-06
210	0x8be2f42c	-8.741942e-32
211	0x3e445e8c	0.19176692
212	0x966ea91b	-1.9278847e-25
213	0xb4098fa3	-1.2811374e-07
214	0x009695f6	1.382912e-38
215	0xbca120a8	-0.019668892
216	0x97cbd20d	-1.3171592e-24
217	0xa7849d3a	-3.6807825e-15
218	0xbc38a8c4	-0.011270706
219	0xbce2b5f5	-0.027674654
220	0x3ce77811	0.028255494
221	0x8195e0c8	-5.50565e-38
222	0x09dcc037	5.314383e-33
223	0xb8c6381b	-9.451826e-05
224	0x24b7ccdb	7.971064e-17
225	0x01921a14	5.366935e-38
226	0x0c82faca	2.018061e-31
227	0x34472792	1.8547715e-07
228	0x1d111f06	1.9206629e-21
229	0x16b5d946	2.9379246e-25
230	0xb9720a7c	-0.00023082824
231	0xbccc079b	-0.02490597
232	0x3aa7a4af	0.0012790168
233	0x3c93f409	0.018060701
234	0xbc1b6e96	-0.009486815
235	0xb8a56604	-7.886815e-05
236	0x1baeab89	2.8896737e-22
237	0x869de778	-5.939695e-35
238	0xbc0d73d8	-0.008633576
239	0x84b64cbd	-4.2858467e-36
240	0xb0b39ac8	-1.3067956e-09
241	0x083d9dff	5.706084e-34
242	0x8cb50308	-2.788929e-31
243	0x3ca76d3b	0.020437827
244	0x13219b53	2.0397638e-27
245	0x3ca11a98	0.019666001
246	0x00c94779	1.8484574e-38
247	0x9ef746b1	-2.618138e-20
248	0x264cfbae	7.111781e-16
249	0xbbfcf405	-0.007719519
250	0x80714714	-1.0402909e-38
251	0xb1d3f07d	-6.1682486e-09
252	0xbbfef19d	-0.0077802674
253	0xbc9cd806	-0.019145977
254	0x93b88297	-4.65769e-27
255	0x3d5dd7e4	0.054160967

en.layers.2.0.bias f4 [8]
0	0x393849db	0.00017575121
1	0xbce383d6	-0.027772825
2	0xba1a6649	-0.00058898755
3	0xbac6e4e0	-0.0015174411
4	0xbcb71a87	-0.022351516
5	0xb989983a	-0.00026244094
6	0xbcc82293	-0.024430549
7	0x3b187b70	0.0023266934

de.layers.0.1.weight f4 [128, 11]
0	0xbcdd8500	-0.027040958
1	0xbb56fa72	-0.0032803086
2	0xbdb9dfc9	-0.09075887
3	0xbead9d37	-0.33909008
4	0xbdee5477	-0.11637204
5	0xbdbcf728	-0.09226829
6	0x3f16d64b	0.58920735
7	0x3ed292c1	0.4112759
8	0xbd5abd2f	-0.053403076
9	0x3e8dd2db	0.27699932
10	0x3f29cba3	0.6632635
11	0xbb84f1a7	-0.0040571275
12	0xc02efe0e	-2.7342563
13	0xbb0488f1	-0.0020223225
14	0xbdff2f4e	-0.124601945
15	0x3d1ae894	0.03781946
16	0xbe885061	-0.26623824
17	0xbd33bc17	-0.04388055
18	0x3cb26c91	0.021780284
19	0x3f958ebe	1.1684186
20	0x3dace187	0.084414534
21	0xbe0d56c9	-0.13802637
22	0xba505987	-0.0007947911
23	0xb05850e2	-7.8695284e-10
24	0xba2a1613	-0.00064882747
25	0xa4f30789	-1.05397216e-16
26	0x98817e1e	-3.3473064e-24
27	0x9f8bedcc	-5.926219e-20
28	0x958d18a9	-5.6988353e-26
29	0x2e96c5bd	6.8563356e-11
30	0xb029ff8f	-6.184501e-10
31	0x2b875101	9.61481e-13
32	0xa08aaefb	-2.3493902e-19
33	0xbd5a0a45	-0.05323245
34	0x3c0e9fb3	0.008705067
35	0xbb4e25aa	-0.0031455555
36	0x3daf7fe2	0.085693136
37	0x3e029491	0.12751986
38	0x3ebd02e7	0.36916277
39	0x3eef89ba	0.46784765
40	0xbebe4055	-0.37158456
41	0xbd354596	-0.044255815
42	0x3ead0c52	0.33798462
43	0xbf5d4441	-0.8643227
44	0x3de8bd79	0.11364264
45	0x3e5adacf	0.21372531
46	0xbcd5d1bd	-0.026100988
47	0x3f16616a	0.5874239
48	0x3e4fbdc1	0.20287229
49	0x3e00edb2	0.12590674
50	0xbf1fbd85	-0.6239856
51	0xbefefff7	-0.4980466
52	0xbebf8584	-0.37406552
53	0x3daba36e	0.08380781
54	0xbf1b452a	-0.6065241
55	0x3c011bb5	0.007880141
56	0x3d83599a	0.064135745
57	0xbcc6647f	-0.024217842
58	0xbf112b5d	-0.5670679
59	0xbeb3784d	-0.3505272
60	0x3e9d0b98	0.30672908
61	0x3f9a2b9c	1.2044559
62	0x3ee63525	0.4496242
63	0x3e95c244	0.29249775
64	0x3cbe32a3	0.023217505
65	0x3ed6c9e9	0.4195092
66	0x3d0c4c96	0.034252726
67	0xbc99afcd	-0.018760586
68	0x3d27f65b	0.041006427
69	0xbd9d7246	-0.076878116
70	0xbc0ed78e	-0.008718384
71	0x3d81ae77	0.06332105
72	0xbdc46982	-0.095904365
73	0x3dcdb71b	0.1004469
74	0x3f89e4b0	1.0772915
75	0xbe2fe078	-0.17175472
76	0x3f074197	0.5283446
77	0xba9e743b	-0.0012089083
78	0x3b073481	0.002063066
79	0xc014085e	-2.3130107
80	0x3f360db5	0.71114665
81	0x3e897b01	0.26851657
82	0xbd9e443d	-0.07727859
83	0x3fb763c9	1.4327327
84	0xbef2f2f0	-0.47450972
85	0x3e2fd702	0.17171863
86	0xbd246595	-0.04013594
87	0x3d8d921c	0.06912634
88	0x3d06600c	0.03280644
89	0xbd0f2787	-0.034949806
90	0x3d96f56e	0.07371031
91	0xbf520607	-0.82040447
92	0xbe60b769	-0.21944965
93	0x3ec243ff	0.37942502
94	0x3e2bcb75	0.16776831
95	0x3f0d1f2f	0.5512571
96	0xbf851160	-1.0395927
97	0x3e02c1dc	0.12769264
98	0x3e13d207	0.14435588
99	0x3ccc8dc5	0.024969945
100	0xbb0ba28f	-0.002130661
101	0x3b9a1781	0.004702509
102	0x3f747ca0	0.9550266
103	0x3e840414	0.2578436
104	0xbd0e1f19	-0.034697626
105	0x3f0d08de	0.55091655
106	0x3f0fb50c	0.5613563
107	0xbe0fb669	-0.14034428
108	0xbceb822f	-0.0287486
109	0x3f05c50f	0.5225381
110	0xbe3f1156	-0.18658957
111	0xbdc13d7e	-0.09435557
112	0xbdda6b5d	-0.10665009
113	0x3eb581e6	0.35450667
114	0x3e57ac50	0.21061826
115	0xbf8a1d72	-1.0790236
116	0xbe8f0fe8	-0.27941823
117	0xbe28f095	-0.16498025
118	0x3e3b9273	0.18317585
119	0x3d3bb64a	0.04582814
120	0x3e182fb3	0.14861946
121	0x39a8c0d3	0.00032187122
122	0xbde82342	-0.1133485
123	0xbd0cf672	-0.034414716
124	0xbea445ee	-0.32084602
125	0x3e1640c4	0.14673144
126	0x3e4a49cb	0.19754712
127	0x3e0a381e	0.1349797
128	0xbee168e5	-0.4402534
129	0xbfeb4e98	-1.838336
130	0xbd0c82ac	-0.034304306
131	0x3d723bfe	0.059139244
132	0x3e92c01e	0.286622
133	0x3ab85f8f	0.0014066565
134	0x3d8f2f12	0.069914
135	0xbe911353	-0.28335056
136	0xbe062b93	-0.1310256
137	0x3dddb45a	0.10825415
138	0x3e9a2555	0.30106607
139	0x3e91434b	0.28371653
140	0x3db3f4cc	0.08786926
141	0xbdffda61	-0.12492824
142	0xbf4db015	-0.80346805
143	0x3dce88df	0.100847
144	0x3d9693bf	0.07352399
145	0x3d72aa51	0.059244458
146	0x3f43e748	0.7652478
147	0x3f5dcd39	0.8664127
148	0xbe7a06cb	-0.24416654
149	0xbf331d68	-0.69966745
150	0xbf81f609	-1.0153209
151	0xbe570a1d	-0.20999952
152	0xbefeb18c	-0.49744833
153	0xbf50f907	-0.81629986
154	0xbb9eee1e	-0.004850163
155	0x3e722f7b	0.23650925
156	0x3dac5503	0.08414652
157	0xbe8c34be	-0.2738399
158	0x3d2d8a8a	0.04236845
159	0x3e7e1783	0.24813657
160	0x3cb878a5	0.022518465
161	0xbd87f672	-0.066388026
162	0xbf87fee5	-1.0624663
163	0x3d725a29	0.059168015
164	0xbe18f283	-0.14936261
165	0xbb1bb0d9	-0.0023756532
166	0xba90120a	-0.0010991704
167	0xbe27cc5d	-0.16386552
168	0x3fa7e388	1.3116312
169	0x3f8df1ac	1.1089377
170	0xbdf1ff27	-0.118162446
171	0x3ba9754f	0.005171455
172	0x271820f3	2.11121e-15
173	0x3dbd9f8e	0.09258948
174	0xbe8193c3	-0.25308046
175	0x3d71a2e3	0.05899323
176	0xbc82f317	-0.015985055
177	0xbb1b00a4	-0.0023651505
178	0x3c8d65fe	0.017260548
179	0x3f99760d	1.1989151
180	0x3e5b838d	0.21436901
181	0x3f3ab799	0.729364
182	0x3f462f2b	0.7741572
183	0xbe511047	-0.20416366
184	0x3e474aaa	0.19462076
185	0x3e0d901f	0.13824509
186	0x3dde2f24	0.10848835
187	0x3df839a1	0.12120367
188	0x3d92c892	0.07167162
189	0x3e28cb92	0.16483906
190	0x3ee22048	0.44165254
191	0xbe6739a9	-0.2258059
192	0x3ac380a2	0.0014915655
193	0xbe6b8eae	-0.23003647
194	0xbf3d098d	-0.738427
195	0xbf4fe313	-0.8120586
196	0xbe4df9fb	-0.20114891
197	0x3d9507eb	0.07276901
198	0xbbfcd3b9	-0.007715669
199	0x3c898e3c	0.016791455
200	0xbe48dc63	-0.19615321
201	0xbfab90d4	-1.3403573
202	0x3edc2c60	0.43002605
203	0x3e23314f	0.15936778
204	0x3cb6cd7c	0.02231478
205	0x3f92f54a	1.1481106
206	0xbeaaa723	-0.3333064
207	0xbe29554f	-0.16536449
208	0xbe1a32f7	-0.15058504
209	0xba94fd4a	-0.001136699
210	0xbaa4b3b0	-0.0012565758
211	0xc04e9031	-3.2275507
212	0xbee0f18d	-0.4393429
213	0xbe2319fc	-0.15927881
214	0xbe037ed2	-0.12841347
215	0x3f49ee42	0.7887918
216	0x3eab977b	0.33514008
217	0xbc98f710	-0.018672496
218	0x3e3ac2ce	0.18238375
219	0xbc1b3071	-0.009471999
220	0x3b279edb	0.0025576863
221	0xbb070234	-0.0020600678
222	0xbd87f328	-0.06638175
223	0x3f79360a	0.9734808
224	0x3def2965	0.11677817
225	0x3d42921f	0.047502633
226	0xc00b30d8	-2.1748562
227	0xbeed8cfe	-0.4639663
228	0xbd49e336	-0.04928895
229	0xbc2289c5	-0.009920542
230	0x3a705980	0.000916861
231	0x3bf8aef8	0.0075892173
232	0x3bd4dbb9	0.0064959195
233	0x3d960ef3	0.0732707
234	0x3f8c67f5	1.0969225
235	0x3e9578d7	0.29193756
236	0x3e37e0dd	0.17956872
237	0xc02a22b9	-2.6583693
238	0x3f372992	0.71547806
239	0xbd7837d3	-0.060600113
240	0x3e09f013	0.13470487
241	0xbc9bc9a2	-0.019017044
242	0xbcc97ad0	-0.024594694
243	0x3cc25002	0.023719791
244	0xbd8700e0	-0.06591964
245	0x3f5e5dc5	0.8686183
246	0x3dda2ffa	0.10653682
247	0xbef46bbd	-0.47738448
248	0x3f35e225	0.71048194
249	0xbebffc25	-0.3749706
250	0x3eee6ba9	0.46566513
251	0x3d9adab4	0.075612456
252	0xbf0933c9	-0.5359464
253	0xbe2c2957	-0.16812645
254	0x3d5df5c7	0.05418947
255	0x3c940e52	0.018073235

de.layers.0.1.bias f4 [128]
0	0x3d499b2c	0.04922025
1	0x3c532290	0.012886658
2	0xbacf45c0	-0.0015813634
3	0x3db7b813	0.08970656
4	0x3ddf1bfa	0.10894008
5	0xbe175683	-0.14779095
6	0xbd36104b	-0.044449132
7	0xbcde8f57	-0.02716796
8	0xbd80f703	-0.06297114
9	0xbd2f49f9	-0.042795155
10	0x3d3bd8ca	0.045861043
11	0x3d6a411f	0.05719101
12	0xbdbd94f0	-0.09256923
13	0xbe496856	-0.19668707
14	0xbdd1a13c	-0.10235831
15	0xbdcbd3d1	-0.0995251
16	0xbdb75a29	-0.089527436
17	0xbd272af7	-0.04081246
18	0x3e1b5268	0.15168154
19	0x3c900057	0.017578287
20	0x3da45a07	0.08024984
21	0x3cb36f48	0.021903649
22	0x3d9a0cec	0.07521996
23	0xbd88f35a	-0.066870406
24	0xbe8f40f5	-0.27979246
25	0x3d26c12e	0.040711574
26	0x3dfa721a	0.122287944
27	0x3e2563ed	0.161514
28	0xbca02bf6	-0.019552212
29	0x3dddf39e	0.10837482
30	0x3e3e9868	0.18612826
31	0xbdf332f6	-0.118749544
32	0xbd1fa475	-0.038975198
33	0x3e224fd6	0.15850767
34	0xb8ee3d31	-0.00011360122
35	0x3dae101a	0.08499165
36	0xbdda6d07	-0.106653266
37	0x3d4eb040	0.050461054
38	0x3e1eeab0	0.15519214
39	0xbc183306	-0.009289509
40	0x3cd38901	0.025822164
41	0x3e307845	0.17233379
42	0xba4a2e90	-0.0007712627
43	0x3d32825e	0.04358136
44	0x3dbaf294	0.09128299
45	0xbbb7a5dd	-0.0056044892
46	0xbc50c72b	-0.012742798
47	0x3cdb8d8b	0.026800891
48	0xbe1bed88	-0.1522733
49	0xbc6fa406	-0.014626509
50	0x3d3c22e6	0.04593172
51	0xbcc2bc51	-0.023771437
52	0xbcf790ad	-0.030220354
53	0xb21caaa6	-9.119196e-09
54	0x3da7c0d3	0.08191075
55	0xbe259e54	-0.16173679
56	0xbdb5ffc4	-0.08886674
57	0xbde0b147	-0.10971313
58	0xbe1992bd	-0.14997382
59	0x8485bd3c	-3.1441934e-36
60	0x3c2d043f	0.010560094
61	0x3dafeb3d	0.0858979
62	0xbaff76d2	-0.0019490367
63	0x3b73dc40	0.0037210137
64	0xbcf27220	-0.029595435
65	0x3d41f272	0.047350354
66	0xbd8ab6ba	-0.067731336
67	0x3d70466b	0.058660906
68	0x3c420586	0.011842137
69	0x3e27d809	0.16391005
70	0xbacd428b	-0.001566009
71	0xbd35f4d9	-0.044422958
72	0xbef46452	-0.47732788
73	0xbc8e4b36	-0.017369848
74	0x3e036545	0.128316
75	0xbe1b552a	-0.15169206
76	0x3d8af04b	0.067841135
77	0x3e0b91ca	0.13629833
78	0xbbfdc17f	-0.007744014
79	0xbcc91050	-0.024543911
80	0x39972c29	0.00028833866
81	0x3dc45827	0.09587126
82	0xbea93b9c	-0.3305329
83	0x3d2aa977	0.04166552
84	0x3d91fab5	0.07127897
85	0xbd5dbd7e	-0.054135792
86	0x3d2c616b	0.042085093
87	0x3d0e7ec7	0.034788873
88	0x3d99bd36	0.07506792
89	0x3cf25624	0.02958209
90	0x3dcd26c4	0.100171596
91	0x3d83fac9	0.06444318
92	0xbd3f2081	-0.046661858
93	0x3de0c07c	0.109742135
94	0xbefb358a	-0.49064285
95	0x3dbd7fa1	0.09252859
96	0x3abf5029	0.0014596033
97	0x3dd68b15	0.104757465
98	0xbdabb623	-0.08384349
99	0x3dfa1bca	0.122123316
100	0xbc56d671	-0.01311265
101	0x3c3259f1	0.0108857015
102	0x3deaf99d	0.11473391
103	0x8a1799bd	-7.2993005e-33
104	0x3b84ba7e	0.004050552
105	0xbec738e0	-0.3891058
106	0x3dc2562d	0.09489093
107	0x3db0a8fb	0.086259805
108	0xbdc17ceb	-0.09447654
109	0xbd85719e	-0.065158114
110	0x3d90b1a1	0.0706513
111	0x3e4e859a	0.20168152
112	0x3c920b85	0.017827759
113	0x3db665cc	0.08906135
114	0x3e8ad6f5	0.27117124
115	0xbd46f26c	-0.048571035
116	0x3c409352	0.011753874
117	0x3d20fba2	0.039302476
118	0xb83fcab8	-4.5726745e-05
119	0xbe43aa24	-0.19107872
120	0xbbe10c3d	-0.006867914
121	0xbbbf7163	-0.005842374
122	0xbcb7699e	-0.02238923
123	0xbe1e9c02	-0.154892
124	0xbebb554c	-0.36588514
125	0xbcace21e	-0.021103915
126	0xbde72bc6	-0.11287646
127	0xbe4cc5b0	-0.19997287

de.layers.1.1.weight f4 [64, 128]
0	0x8659dff8	-4.097771e-35
1	0x864c7c14	-3.8459294e-35
2	0x0193c024	5.427498e-38
3	0x8613db5e	-2.7808793e-35
4	0x86289f87	-3.171449e-35
5	0x029115b4	2.1318292e-37
6	0x862aebd5	-3.2146708e-35
7	0x85195cd9	-7.211079e-36
8	0x85783fbb	-1.16726094e-35
9	0x82edefae	-3.496159e-37
10	0x85e2bf73	-2.1323265e-35
11	0x84c26f88	-4.5711606e-36
12	0x855f8a5c	-1.0510822e-35
13	0x032c675e	5.0664917e-37
14	0x8619cc34	-2.8926126e-35
15	0x03dddf70	1.3040511e-36
16	0x03487564	5.8909475e-37
17	0x868bb14b	-5.25465e-35
18	0x868ccff4	-5.2967707e-35
19	0x8592d100	-1.3806548e-35
20	0x8565315a	-1.0776593e-35
21	0x86617310	-4.240233e-35
22	0x862e3899	-3.2767344e-35
23	0x03171ac5	4.440564e-37
24	0x04b4806e	4.243574e-36
25	0x85b69e55	-1.717336e-35
26	0x86fffccd	-9.6291796e-35
27	0x86b7adfb	-6.909259e-35
28	0x021faa0c	1.1730276e-37
29	0x86e89ad3	-8.7496194e-35
30	0x870f27a3	-1.0769772e-34
31	0x034b7546	5.979096e-37
32	0x0506762d	6.322355e-36
33	0x863bd97e	-3.533058e-35
34	0x864afb67	-3.817668e-35
35	0x86eb8139	-8.858705e-35
36	0x01904c10	5.300639e-38
37	0x86329b3f	-3.3592136e-35
38	0x866a3c5c	-4.4054854e-35
39	0x85b83456	-1.7322502e-35
40	0x868e675a	-5.3566325e-35
41	0x86a35c3d	-6.144932e-35
42	0x04b34952	4.2150032e-36
43	0x8659df1c	-4.097708e-35
44	0x869eacc4	-5.968685e-35
45	0x8656a198	-4.0367647e-35
46	0x85ebda1d	-2.2179416e-35
47	0x863b025f	-3.5172533e-35
48	0x033e1dd4	5.5870223e-37
49	0x84dc1f82	-5.1750687e-36
50	0x045ea79c	2.6172937e-36
51	0x85f4ad7e	-2.300938e-35
52	0x85f05163	-2.2599388e-35
53	0x0196c210	5.5379764e-38
54	0x855aa5bd	-1.0280752e-35
55	0x85b0be59	-1.6620883e-35
56	0x04464e2e	2.3310686e-36
57	0x8391420a	-8.537496e-37
58	0x020af324	1.0208417e-37
59	0x01965e48	5.5236585e-38
60	0x82c47bd8	-2.8870694e-37
61	0x86229b6f	-3.0583008e-35
62	0x860ff8fe	-2.707824e-35
63	0x8643de2b	-3.6838647e-35
64	0x85be3313	-1.7886276e-35
65	0x86833005	-4.934728e-35
66	0x868675f5	-5.057852e-35
67	0x868b394d	-5.2370185e-35
68	0x85bbe02b	-1.7667742e-35
69	0x869b2e76	-5.837279e-35
70	0x8698855b	-5.7371993e-35
71	0x860e8bf3	-2.681005e-35
72	0x019ab1a8	5.682559e-38
73	0x85e41964	-2.1450344e-35
74	0x86e2a60b	-8.525573e-35
75	0x8282a8ca	-1.9198663e-37
76	0x861a6a15	-2.9042118e-35
77	0x8679f0f5	-4.7008722e-35
78	0x854b9218	-9.571847e-36
79	0x85ff218d	-2.399241e-35
80	0x869edff6	-5.9762075e-35
81	0x86350b71	-3.4050722e-35
82	0x03bca2e6	1.10870465e-36
83	0x86176bcb	-2.8479137e-35
84	0x86532f72	-3.9719547e-35
85	0x03f10e31	1.4167965e-36
86	0x85d68025	-2.0171536e-35
87	0x8600d623	-2.4231447e-35
88	0x863d431b	-3.559625e-35
89	0x8675209a	-4.610333e-35
90	0x86919962	-5.4768314e-35
91	0x86c643ef	-7.457914e-35
92	0x8620d562	-3.0249424e-35
93	0x87008b2a	-9.670546e-35
94	0x81966270	-5.524255e-38
95	0x860448cf	-2.4879932e-35
96	0x8643fd2d	-3.6861428e-35
97	0x87153391	-1.1224668e-34
98	0x852450d7	-7.726091e-36
99	0x86e2eb9f	-8.5357966e-35
100	0x85e55022	-2.1564493e-35
101	0x85579ecf	-1.013842e-35
102	0x87299f1c	-1.2760905e-34
103	0x0132bbf0	3.2828275e-38
104	0x85c272e7	-1.8285881e-35
105	0x850b44b7	-6.5483695e-36
106	0x86d0b43d	-7.850574e-35
107	0x863fd8de	-3.6082436e-35
108	0x840036b1	-1.507144e-36
109	0x83735404	-7.1507727e-37
110	0x85d682a9	-2.017246e-35
111	0x8792af3a	-2.2070627e-34
112	0x869ebeff	-5.971364e-35
113	0x86cfed51	-7.821345e-35
114	0x870e27f9	-1.069464e-34
115	0x84bdb37d	-4.459852e-36
116	0x85225bd3	-7.634069e-36
117	0x85d24b9a	-1.9776077e-35
118	0x86006cf0	-2.415416e-35
119	0x84b81ee6	-4.3286568e-36
120	0x846fa171	-2.8168445e-36
121	0x86cd0777	-7.71234e-35
122	0x85a40075	-1.5422654e-35
123	0x85811fd3	-1.2142792e-35
124	0x80975960	-1.3899222e-38
125	0x847e3c76	-2.9885319e-36
126	0x81bcd7b0	-6.936979e-38
127	0x843fe14f	-2.2555399e-36
128	0xbdcad384	-0.09903625
129	0xbdc757eb	-0.09733566
130	0x8548d396	-9.442817e-36
131	0x3e021886	0.12704667
132	0xbddf6c14	-0.10909286
133	0x3cf6d01b	0.03012853
134	0xbd9cbbd5	-0.076530136
135	0x3f0aa49c	0.54157424
136	0x3def0dd6	0.11672561
137	0x3e34238a	0.17591682
138	0x3cc4cd4f	0.02402368
139	0xbc79e222	-0.015251668
140	0xbd51fef3	-0.05126853
141	0x3c28f4ea	0.010312298
142	0x3d561087	0.052261855
143	0x3f790e4d	0.97287446
144	0x3ec74c65	0.38925472
145	0x3c930500	0.01794672
146	0xbec361a9	-0.38160446
147	0x3e58b1c3	0.2116156
148	0xbfc9dbea	-1.5770237
149	0xc00ef082	-2.2334294
150	0x3e476755	0.19473012
151	0xbd60bc87	-0.054867294
152	0x3d820983	0.063494705
153	0xbf23f8de	-0.64051616
154	0xbeb45f0f	-0.35228774
155	0x395bbbbb	0.00020955403
156	0xbf58fbfe	-0.8475951
157	0xbda1b624	-0.07896069
158	0xbe15772a	-0.14596239
159	0x3f10f66b	0.56626004
160	0x3ecaa98c	0.3958248
161	0xbd1f0832	-0.038826175
162	0xbd4b6375	-0.049655396
163	0x3d28e030	0.041229427
164	0xba1d7e19	-0.0006007865
165	0xbd634692	-0.055487223
166	0x3e50a89c	0.2037682
167	0xbe18609c	-0.14880604
168	0x3c75df1f	0.0150068095
169	0xbe04fd06	-0.12987146
170	0x3d620d61	0.05518854
171	0xbe3451e5	-0.17609365
172	0xbbd6cf1f	-0.0065554525
173	0x3eb86950	0.36017847
174	0xbe56aadd	-0.20963617
175	0xb955f512	-0.00020404559
176	0x3d073073	0.03300519
177	0x3e35e410	0.1776278
178	0x3dcbc076	0.099488184
179	0x3ce60a8f	0.028081207
180	0x3e282bee	0.16423008
181	0x259202bc	2.5328816e-16
182	0xbf353ea2	-0.70798695
183	0x3ea96bac	0.3308996
184	0xbc602685	-0.013681059
185	0x3f8d0507	1.1017159
186	0xbcc12ea4	-0.02358181
187	0x81921518	-5.36622e-38
188	0xbc4dd514	-0.012563009
189	0x3e7cf863	0.24704127
190	0xbd28862d	-0.041143585
191	0x3d8e6a8a	0.069539145
192	0x3c980ad6	0.018559854
193	0xbd6b6942	-0.05747343
194	0xbc7a5d54	-0.01528104
195	0x3ddf89bc	0.109149426
196	0xbdaafcdf	-0.083490126
197	0xbbe3544a	-0.0069375383
198	0xbdfd3ed4	-0.12365499
199	0xbc9b93a4	-0.018991299
200	0x019436ef	5.444544e-38
201	0x3dccbc03	0.09996798
202	0x3d859f0e	0.06524478
203	0xbddbcb27	-0.107321076
204	0x3f07a3cf	0.5298433
205	0x3dfa1857	0.12211674
206	0xbd909bbf	-0.07060956
207	0x3e55e502	0.20888141
208	0xbcf33c68	-0.02969189
209	0xbe923e86	-0.28563327
210	0x3d85d993	0.065356396
211	0xbd8dd4e0	-0.06925368
212	0x3da9013d	0.08252189
213	0x3d6cf69a	0.057852365
214	0x3e5a8ad1	0.21342017
215	0xbd8a9f94	-0.06768718
216	0xbe821b2b	-0.25411353
217	0xbdd3e3df	-0.10346197
218	0x3ea281d4	0.31739676
219	0x3d197542	0.03746534
220	0x3e84de11	0.25950673
221	0xbe1621cb	-0.14661328
222	0x019610d9	5.5125473e-38
223	0xbdf54424	-0.119758874
224	0xbe211d52	-0.15733841
225	0xbcf66b5a	-0.030080486
226	0x80cb850f	-1.8690338e-38
227	0x3c3f1e47	0.0116649335
228	0x3eae6c72	0.34067112
229	0x3d6ac084	0.057312503
230	0xbe001d45	-0.12511165
231	0x850acd00	-6.5263814e-36
232	0xbe84559c	-0.25846565
233	0x01688fbf	4.2714803e-38
234	0xbd94af3d	-0.072599865
235	0xbdd77856	-0.10520999
236	0xbe269bbb	-0.16270344
237	0xbe110abc	-0.14164251
238	0xb8cdb7ba	-9.8093835e-05
239	0x3d09dc56	0.033657394
240	0xbdce03ab	-0.10059293
241	0x3cc67f0a	0.024230499
242	0xbda86ff4	-0.08224478
243	0xbdf88181	-0.12134076
244	0x3e884676	0.26616257
245	0x3e4488a4	0.1919275
246	0x3db7d9c7	0.089770846
247	0x3f85b11b	1.0444673
248	0xbe03fb59	-0.1288885
249	0x3d76c61e	0.060247533
250	0x3e0477f8	0.1293639
251	0x3f2bcf1c	0.671129
252	0x019707d4	5.547987e-38
253	0x3db9250c	0.09040269
254	0xbe51f170	-0.20502257
255	0x01969d2d	5.5326834e-38

de.layers.1.1.bias f4 [64]
0	0x8839253d	-5.5715186e-34
1	0xbd7cb76d	-0.061698366
2	0xbd068b83	-0.032847892
3	0xbd6bdae1	-0.057581786
4	0x3dafde81	0.08587361
5	0x3ddfa137	0.10919421
6	0x3da4af5f	0.08041262
7	0x3cf1ba74	0.029507853
8	0xbdb6d232	-0.0892681
9	0x3c1affbc	0.009460386
10	0xbd7afd62	-0.0612768
11	0xbcf548e3	-0.029941982
12	0x3d15e1f3	0.036592435
13	0x3ce47be5	0.027891109
14	0x3d7f6894	0.062355593
15	0x3db0d124	0.086336404
16	0x84e4f5b6	-5.3828192e-36
17	0xbc2226ee	-0.009896977
18	0xbadf7959	-0.0017049714
19	0x8417120d	-1.7758253e-36
20	0x3d0fcc2e	0.03510683
21	0xbce18008	-0.02752687
22	0xbd5f9490	-0.05458504
23	0x3d713f95	0.058898527
24	0xbc87af72	-0.016563151
25	0x3d38e500	0.045140266
26	0x3d5376ac	0.051626846
27	0xbd102c6e	-0.03519862
28	0x3d60a517	0.054844942
29	0x906c6a97	-4.6624907e-29
30	0xbdaffdb3	-0.08593311
31	0xbd0f7d89	-0.03503183
32	0x882710c0	-5.0274424e-34
33	0x3d481aa1	0.04885352
34	0xb0eb93ad	-1.7140472e-09
35	0xa1880256	-9.216337e-19
36	0xbb8951b4	-0.004190648
37	0xbcd8e9f0	-0.026478738
38	0xbcc47726	-0.023982596
39	0xbd65deb7	-0.0561206
40	0x3d373762	0.04473055
41	0x3d4c09ab	0.049813908
42	0xbcb9ca29	-0.022679405
43	0xbdacb0c8	-0.08432156
44	0x8561650d	-1.0598009e-35
45	0x8693aa48	-5.554546e-35
46	0x3c1649c5	0.009172861
47	0x8591661e	-1.3673246e-35
48	0xbd0d30cc	-0.034470364
49	0x3dc5e03e	0.096619114
50	0xbd08e992	-0.033425875
51	0x3c9d511f	0.01920372
52	0xbc446efd	-0.011989352
53	0xbd17bd6e	-0.03704589
54	0xbc30808f	-0.010772838
55	0x3c05fbb8	0.00817769
56	0xbc908b31	-0.017644497
57	0xbcbe3ea6	-0.023223232
58	0x3ddc1e71	0.10747994
59	0x3d2742ef	0.040835317
60	0x3d888383	0.06665709
61	0x3cb5c906	0.022190582
62	0x83020284	-3.8206454e-37
63	0x3df752e1	0.12076355

de.layers.2.1.weight f4 [32, 64]
0	0x05c13700	1.8169837e-35
1	0xbf8c2879	-1.0949851
2	0x3e6d08f0	0.2314794
3	0x3b099055	0.002099057
4	0xbf06dea5	-0.5268348
5	0x3ce34b75	0.027745942
6	0xbd52a3a8	-0.051425606
7	0xbd6fa75a	-0.05850921
8	0xbdf8009f	-0.121094935
9	0xbd37a3f3	-0.04483409
10	0x3d9d6843	0.07685902
11	0x3bfa964f	0.0076473127
12	0x3b619528	0.003442118
13	0x3ec0420c	0.3755039
14	0xbb669e8e	-0.003518972
15	0x3d0d1162	0.034440406
16	0x81bcf0a8	-6.940562e-38
17	0xbd116032	-0.03549213
18	0x3db1fd1d	0.08690856
19	0x81c78a56	-7.329956e-38
20	0x3cc50f0f	0.024055032
21	0xbc8e4c24	-0.017370291
22	0x3dafe459	0.08588476
23	0xbd98814f	-0.07446539
24	0xbd981a42	-0.07426883
25	0x3e554b61	0.20829536
26	0x3c9753ea	0.01847263
27	0x3d86f0ad	0.06588874
28	0x3dfee3ac	0.12445769
29	0x8e2e3286	-2.1471482e-30
30	0x3ed6d84d	0.419619
31	0x3d58fa24	0.052972928
32	0x07bbeb53	2.8274944e-34
33	0x3d1e1361	0.0385927
34	0x289b35a3	1.7231718e-14
35	0x1dc09a86	5.098175e-21
36	0x3e4c3933	0.19943695
37	0xbeb493eb	-0.35269102
38	0x3e69c9b0	0.22830844
39	0xbe1acc73	-0.15117054
40	0x3bb8e1ad	0.005642137
41	0x3e841d92	0.2580381
42	0x3caae0d1	0.020859154
43	0x3e3b5864	0.18295437
44	0x826e7380	-1.7518625e-37
45	0x8368edaa	-6.8451497e-37
46	0x3bbaa216	0.0056955917
47	0x0440645e	2.2615578e-36
48	0x3d7122e7	0.058871176
49	0xba75fe88	-0.00093839364
50	0x3df0e4e8	0.117624104
51	0x3e12cd14	0.14336044
52	0xbe042be3	-0.12907366
53	0x3d0b2ef3	0.03398032
54	0x3aa827e9	0.0012829277
55	0x3dd4dc6e	0.10393606
56	0xbdb592fd	-0.088659264
57	0xbe0555c9	-0.13021006
58	0xbd14e010	-0.036346495
59	0xbd8b7763	-0.068098806
60	0xbd8e8585	-0.069590606
61	0x3e43cabf	0.1912031
62	0x01e6abc8	8.473515e-38
63	0xbdab2bbc	-0.08357951
64	0x08000775	3.8527365e-34
65	0x3e93b4f3	0.2884899
66	0x3e00b901	0.12570573
67	0xbcd16327	-0.025559975
68	0x3e2d36b0	0.16915393
69	0x3da90240	0.08252382
70	0x3e0b6509	0.1361276
71	0x3cbe8f2c	0.023261629
72	0x3dcac343	0.099005245
73	0x3ea795d1	0.32731488
74	0x3d274937	0.040841307
75	0x3e9d9ebc	0.30785167
76	0x3e85cdff	0.26133725
77	0x3db31d3b	0.0874581
78	0x3e10d5d5	0.1414407
79	0xbd818277	-0.06323712
80	0x8107b5f0	-2.4926118e-38
81	0x3e9b73cb	0.3036178
82	0x3cb80b41	0.022466304
83	0x83945d06	-8.720015e-37
84	0xbd6ed326	-0.058306836
85	0xbc860054	-0.016357578
86	0xbdb6c363	-0.08923986
87	0xbbc30c59	-0.0059523997
88	0x3e0656eb	0.13119094
89	0xbdb5612f	-0.08856427
90	0x3e5ac424	0.21363884
91	0xbd99052f	-0.07471692
92	0x3d8664bc	0.06562182
93	0x8e7f48f9	-3.1466312e-30
94	0x3e8d85fa	0.27641279
95	0x3de5d0a8	0.11221439
96	0x07841a7d	1.987672e-34
97	0xbe0b0b2e	-0.13578483
98	0x27a61924	4.6101513e-15
99	0x9c214273	-5.3356315e-22
100	0xbcbca068	-0.023025706
101	0x3ec26552	0.37967926
102	0xbd18bf3e	-0.037291758
103	0x3b8b64b6	0.004253949
104	0xbb6b0cbe	-0.003586575
105	0x3b5220ff	0.0032063124
106	0x3e1d11ee	0.15338871
107	0x3e0840ca	0.13305965
108	0x80ac6b60	-1.5834224e-38
109	0x837f4880	-7.502099e-37
110	0x3cc8c051	0.024505766
111	0x03b64dfa	1.0714901e-36
112	0xbc071b95	-0.008246322
113	0x3999757f	0.00029269975
114	0x3e037e9d	0.12841268
115	0x3dd960ac	0.10614142
116	0x3ddf84ad	0.10913978
117	0xbaefb480	-0.0018288046
118	0x3e31ed85	0.17375763
119	0x3d4eeb1b	0.050517183
120	0xbd7467df	-0.05966937
121	0x3e1b9137	0.15192114
122	0x3e04401b	0.1291508
123	0xbdee2021	-0.11627222
124	0x3ece0da6	0.40244788
125	0x3e1f3cf4	0.15550596
126	0x01924a78	5.3738787e-38
127	0x3df21802	0.118209854
128	0x87ba6b34	-2.8049178e-34
129	0x3e06a8de	0.13150355
130	0xbda37721	-0.079817064
131	0x3e00d6e4	0.12581974
132	0x3e22635b	0.15858214
133	0x3dd3f0d5	0.103486694
134	0xb931d403	-0.00016959016
135	0x3dea1163	0.114290975
136	0x3db65640	0.0890317
137	0xbd20d588	-0.03926614
138	0xbe0ee454	-0.13954288
139	0x3daaa7f2	0.08332814
140	0x3e128c2e	0.14311287
141	0x3e18ef3e	0.14935014
142	0xbdab4cea	-0.083642796
143	0x3dcf9b44	0.101370364
144	0x01bc9650	6.927598e-38
145	0x3da3a7c0	0.0799098
146	0xbd8681bc	-0.065677136
147	0x03aa13ff	9.996293e-37
148	0x3df364cc	0.1188446
149	0xbdf70ae2	-0.120626226
150	0x3de042f3	0.109502696
151	0xbd79ba2a	-0.060968556
152	0xbd731c86	-0.059353374
153	0x3d2bbb6e	0.041926794
154	0xbd2207a2	-0.03955806
155	0xbc7312ad	-0.014835996
156	0x3db32f74	0.08749285
157	0x0d072bc3	4.1652763e-31
158	0xbe01010e	-0.12598059
159	0x3c3b44cf	0.0114299795
160	0x076c4a73	1.7776545e-34
161	0x3e296d02	0.1654549
162	0x2a046543	1.1759087e-13
163	0x1e254ffd	8.7515685e-21
164	0x3d9e3729	0.07725365
165	0xbe014bce	-0.12626573
166	0x3e3bf2ac	0.1835429
167	0x3d76935e	0.060199134
168	0x3caa9195	0.020821372
169	0x3efb3c62	0.49069506
170	0x3c8082c9	0.015687363
171	0x3e0936bf	0.1339979
172	0x826dab14	-1.7461107e-37
173	0x82cbe3c6	-2.9958905e-37
174	0xbe45052c	-0.19240254
175	0x030df862	4.1721305e-37
176	0x3e2b7d8d	0.16747113
177	0x3baa9b1f	0.00520648
178	0x3db8df14	0.09026924
179	0xbdfb0b26	-0.12257986
180	0xbe3dc326	-0.18531474
181	0xbcde5a7c	-0.027142756
182	0xbb8b64b8	-0.00425395
183	0x3da9e62f	0.08295857
184	0x3e380c59	0.1797346
185	0x3e878485	0.26468292
186	0x3df32c96	0.118737385
187	0x3e3e81eb	0.18604247
188	0xbe1c3609	-0.15254988
189	0xbcf11a8c	-0.029431604
190	0x00c4ccd8	1.8073241e-38
191	0x3d7f2154	0.062287644
192	0x8819846a	-4.6197415e-34
193	0xbe8c4513	-0.2739645
194	0x3e71c3fe	0.23609921
195	0x3e2d4e73	0.16924457
196	0xbe40deea	-0.18835035
197	0x3d87ce7d	0.066311814
198	0x3e64e04c	0.22351187
199	0x3e586a0d	0.21134205
200	0x3d9b1224	0.075718194
201	0xbcc33338	-0.023828134
202	0xbcce08db	-0.025150707
203	0xbda667f0	-0.08125293
204	0xbd744263	-0.059633624
205	0x3b9af3df	0.0047287787
206	0x3e58ab07	0.21158992
207	0x3e355525	0.17708261
208	0x01225000	2.9812098e-38
209	0x3daa80e4	0.08325365
210	0xbcc4ffef	-0.02404782
211	0x03fad42c	1.4742392e-36
212	0x3e1f7976	0.15573677
213	0x3d2d1447	0.042255666
214	0x3e634d03	0.22197346
215	0xbbed32b1	-0.007238709
216	0x3db92c45	0.09041647
217	0x3de618ca	0.11235197
218	0xbd9892b1	-0.07449854
219	0x3b07ceef	0.0020722707
220	0x39e83810	0.00044292258
221	0x0e0758c6	1.6682778e-30
222	0x3d56c094	0.05242975
223	0xbc5d4943	-0.0135062365
224	0x06bead84	7.1725015e-35
225	0x3e25a558	0.16176355
226	0x283d022b	1.0492078e-14
227	0x1e0a40da	7.31907e-21
228	0x3e4a67fa	0.19766226
229	0xbe8f660d	-0.28007546
230	0x3d2d05d9	0.042241905
231	0x3e4d8a96	0.20072398
232	0xbd1dce5c	-0.038526878
233	0x3e33cde8	0.17559016
234	0x3c74481f	0.014909773
235	0x3e1d319c	0.15350956
236	0x82985fe2	-2.2389427e-37
237	0x020b048e	1.0213414e-37
238	0xbcb75138	-0.022377595
239	0x013ee7f0	3.5063896e-38
240	0x3c7a57df	0.015279739
241	0x3d64bcf8	0.055844277
242	0x3e81aee8	0.25328755
243	0x3e91d6fd	0.28484336
244	0xbdc5051a	-0.09620114
245	0xbac97430	-0.001536971
246	0xbd224b81	-0.039622787
247	0xbce53378	-0.027978644
248	0x3e80ec35	0.25180212
249	0x3d3125d5	0.04324897
250	0xbd7cc8e7	-0.061715033
251	0x3e8141bc	0.25245464
252	0xbdb519e0	-0.08842826
253	0x3df0979d	0.11747668
254	0x01aca2f8	6.341667e-38
255	0xbd85aa05	-0.06526569

de.layers.2.1.bias f4 [32]
0	0x3c4c175e	0.012456743
1	0x3e3d32ad	0.18476363
2	0x3e0aa764	0.13540417
3	0xbb168972	-0.0022970107
4	0x3d0e8824	0.034797803
5	0xb65dd773	-3.3056974e-06
6	0x3de386be	0.111096844
7	0x3ae46ac8	0.0017426843
8	0x3e34a1bb	0.1763982
9	0x902ad670	-3.3691785e-29
10	0x3e239bb1	0.1597736
11	0xbd81821f	-0.06323647
12	0xbcaf6811	-0.021411927
13	0x3e39fff0	0.18164039
14	0x3d4a24d7	0.04935154
15	0x3dea2ac6	0.1143394
16	0x3e0322e6	0.12806281
17	0x99d884ae	-2.2387465e-23
18	0x3db8ef2d	0.09029994
19	0x3e048bde	0.1294398
20	0x3dc5dd49	0.096613474
21	0x3ddbf70e	0.10740481
22	0x3c4a8e3c	0.012363013
23	0x3deb0622	0.11475779
24	0x3e3df458	0.18550241
25	0x3c021fbd	0.007942137
26	0x3dd55278	0.1041612
27	0x82484e64	-1.4716176e-37
28	0x3bca681a	0.0061769607
29	0xbc997696	-0.018733304
30	0x3df451b9	0.1192965
31	0x828c5274	-2.0618477e-37

de.layers.3.1.weight f4 [3, 32]
0	0xbd1bd987	-0.038049247
1	0xbe2914f1	-0.16511895
2	0x3d9c3163	0.07626607
3	0x3e346ed4	0.17620403
4	0xbdc046dd	-0.09388516
5	0xb41a6fe8	-1.4383079e-07
6	0x3e32dc77	0.17466913
7	0x3c0e1339	0.008671575
8	0xbdf46a03	-0.11934283
9	0x8e21294f	-1.9864672e-30
10	0xbe748e84	-0.2388249
11	0xbe3a5f17	-0.18200336
12	0x3d9d7f5f	0.0769031
13	0xbd534945	-0.051583547
14	0x3c4ac51b	0.012376095
15	0xbc1f2498	-0.0097133145
16	0x3ce6249b	0.028093627
17	0x1f87297f	5.7243373e-20
18	0x3e45159e	0.19246528
19	0xbdefa06e	-0.117005214
20	0xbb7b18af	-0.0038314273
21	0xbd1b3607	-0.03789332
22	0xbe02db40	-0.1277895
23	0x3e809cbe	0.25119585
24	0xbc49e7a2	-0.012323292
25	0x3e0706d9	0.13186206
26	0x3e0f884d	0.14016838
27	0x0325ce1c	4.8725744e-37
28	0xbc6d20d6	-0.014473161
29	0xbe60b962	-0.21945718
30	0x3e098224	0.13428551
31	0x0541e711	9.1172566e-36
32	0x3e100792	0.14065388
33	0xbcf7fce6	-0.030271959
34	0x3def40da	0.11682291
35	0x3e2d6e65	0.16936643
36	0x3e527a95	0.20554574
37	0xb3fb9a77	-1.1716195e-07
38	0xbdcbcd61	-0.09951282
39	0xbe864714	-0.26226103
40	0x3e23152e	0.15926048
41	0x8fcd75fb	-2.0260005e-29
42	0xbe199dae	-0.15001556
43	0xbe1f198b	-0.15537088
44	0x3c889f51	0.01667753
45	0xbdfa2d78	-0.12215704
46	0x3d383464	0.04497184
47	0x3e034510	0.12819314
48	0x3e58fc80	0.21190071
49	0x9cd6a589	-1.4204122e-21
50	0xbe341999	-0.1758789
51	0x3e54c830	0.2077949
52	0xbc09c115	-0.008407851
53	0xbdcda9c9	-0.100421496
54	0xbd0d12db	-0.03444181
55	0x3da3bac0	0.07994604
56	0xbe271632	-0.1631706
57	0xbcc49cb5	-0.024000505
58	0xbd9252f7	-0.071447305
59	0x830a7412	-4.0687797e-37
60	0xbd6ca7a0	-0.057777047
61	0x3e0a92ad	0.13532515
62	0xbd2043db	-0.039127212
63	0x0540e5e0	9.070018e-36
64	0x3e37f1a3	0.17963271
65	0xbe91faed	-0.28511754
66	0xbe99e0fc	-0.30054462
67	0x3e10a016	0.14123568
68	0x3cd75763	0.026286786
69	0xb129e4f9	-2.4722893e-09
70	0xbe6b60ef	-0.22986196
71	0xbe698f0c	-0.22808474
72	0xbe6bb76f	-0.23019193
73	0x0d7f1add	7.8610277e-31
74	0xbebd52f3	-0.36977348
75	0x3d2091bc	0.039201483
76	0x3e58dc36	0.21177754
77	0x3f1b2c6a	0.60614645
78	0xbd8cfceb	-0.06884178
79	0x3d2b84e0	0.041874766
80	0xbe40e62b	-0.18837802
81	0x9d54d258	-2.8166712e-21
82	0xbdde299b	-0.10847779
83	0xbe336c4e	-0.17521784
84	0xbf1e5d94	-0.6186154
85	0x3eac7d95	0.3368956
86	0x3f2db877	0.67859596
87	0x3e1bcaed	0.15214129
88	0xbebea264	-0.3723327
89	0xbe462ad1	-0.1935227
90	0x3e6ce0c0	0.2313261
91	0x020c7ed0	1.0321969e-37
92	0xbe138f5d	-0.14410158
93	0x3e996676	0.29960984
94	0x3dc70348	0.09717423
95	0x840eb9eb	-1.677739e-36

de.layers.3.1.bias f4 [3]
0	0x3e1b188e	0.15146086
1	0xbe27d889	-0.16391195
2	0xbc7c56d7	-0.015401564
